models/march_madness_nn.pth (torch, 200566 bytes, 10 tensors)

fc1.weight f4 [256, 22]
000000 00 47 86 be 09 bd 27 3d c8 51 c5 3d 1b c0 88 bd
       -0.26226044 0.040951762 0.09634739 -0.06677266
000010 b4 4f 3f be ac fb 0a 3e 52 ee 6e bd 88 53 86 3e
       -0.18682748 0.13572568 -0.05833275 0.26235604
000020 86 17 cb be 8f 17 bf bd 7d 30 e5 bd cb 4e c2 3d
       -0.39666384 -0.09330665 -0.11190889 0.09487685
000030 d1 6d 27 be 56 7a ac be 67 95 31 3e f5 02 44 3e
       -0.16350485 -0.33687085 0.17342149 0.19141753
000040 cb af ab 3d dc 9f d6 3d 87 87 98 3d 2e 7b 44 3d
       0.08383139 0.104797095 0.07447725 0.047969036
000050 9d 8f 9a 3e 4a 2d 13 3e 18 b9 46 3e 9c 7f 8c bc
       0.30187693 0.14372745 0.19406545 -0.017150693
000060 8b 8e 49 3d db 63 f9 3d c2 f5 29 be 96 7b 0f be
       0.049208205 0.12177249 -0.16597655 -0.14011988
000070 45 d8 fd bd 8f fd 1c 3f 0c f0 d3 3e 00 2e 98 3d
       -0.12394766 0.613244 0.4139408 0.07430649
000080 32 01 11 be e9 90 ca be c3 1c 82 bb 2e de 94 bd
       -0.14160612 -0.39563683 -0.003970714 -0.0726894
000090 30 b0 4f be 4b 8a 10 3e b5 10 2e bc b4 98 ad bd
       -0.20282054 0.14115255 -0.0106241 -0.084763914
0000a0 d5 bf f6 3b 27 dd d6 3c f6 f5 94 3d 58 e3 a2 3e
       0.0075301924 0.0262285 0.07273476 0.31814075
0000b0 06 e1 78 be 84 53 e4 3c 58 bc 54 bc 2e e4 71 bd
       -0.2430459 0.027871855 -0.012984358 -0.0590555
0000c0 37 29 86 be 40 b8 c6 bd a8 5c 3e be 19 4a a0 3e
       -0.2620332 -0.09703112 -0.18590033 0.31306532
0000d0 7b 4e c3 3c b3 b3 a3 be 46 16 90 3e 88 4f 64 be
       0.023841133 -0.31973037 0.28141993 -0.22295964
0000e0 d6 5f 38 3e 1e 01 cb bc 2a 0e 04 bc bf a9 e2 bd
       0.18005309 -0.024780806 -0.008060018 -0.11067533
0000f0 1d d7 5d 3e c1 55 86 3e 3d cd a2 3d b6 e7 30 bd
       0.2166409 0.262373 0.07949302 -0.043189727
000100 34 27 cf 3e 49 e8 5d be aa 24 47 bc 0d 87 13 be
       0.40459597 -0.21670641 -0.0121547375 -0.14406987
000110 94 f4 c4 bc d9 d5 93 3e 10 53 a2 be c6 d4 92 bd
       -0.024042405 0.2887409 -0.31703997 -0.071694896
000120 cb 02 21 bd 05 96 5d 3f 9c 1f 24 bd 69 a7 80 3e
       -0.039309304 0.86557037 -0.040069208 0.25127724
000130 ec 78 e8 3c 12 65 89 be 25 71 90 bd 34 f2 71 3e
       0.028377973 -0.26834923 -0.070528306 0.2362755
000140 66 d4 90 be 82 e5 69 3e 27 fb 67 be 84 8b 00 3d
       -0.28287047 0.22841457 -0.22654401 0.031383052
000150 81 8d ca 3d a4 11 aa 3d 87 dc 97 bd 41 0c b3 3e
       0.09890271 0.08304146 -0.07415109 0.34970286
000160 27 4b ab 3e c1 13 13 3d 08 18 9f be ce 5a 51 3e
       0.33455774 0.03590751 -0.31073022 0.20444795
000170 92 20 69 3e ad b7 05 3e 90 dc a5 3d 33 2d 3d 3e
       0.22766331 0.13058348 0.080987096 0.18474273
000180 d8 d1 0a 3e ed 64 25 3e 9e b3 f0 be 13 2f 06 bf
       0.13556612 0.16151781 -0.47012037 -0.5241558
000190 47 7d 57 3e 82 5c 38 3a bd c9 09 3e 6d aa 49 be
       0.21043883 0.00070328277 0.13455863 -0.19693919
0001a0 8a 0b a7 3a e3 e7 ea 3c c4 b0 23 3e de f5 44 3d
       0.0012744528 0.028675025 0.159854 0.04808604
0001b0 50 65 fe bd 22 2c 5e 3e 9d a5 9f 3e 14 bd 72 be
       -0.124216676 0.21696523 0.3118104 -0.2370494
0001c0 7e b7 e5 3d c5 28 72 bc 71 39 45 3e bf 89 33 be
       0.11216639 -0.014780228 0.19260193 -0.17533015
0001d0 9c 7e 2b 3e 5c 7d 2f 3f 73 11 bd 3e 44 98 15 be
       0.16747516 0.6855066 0.36927375 -0.14608866
0001e0 89 e2 56 bc 1f bb 98 be 85 5f 74 be a4 16 b0 bd
       -0.013115534 -0.29830262 -0.23864563 -0.08598068
0001f0 44 ea ce bd 44 a1 60 3c 86 eb be bd 25 8e 9e be
       -0.10103276 0.013710324 -0.09322266 -0.30967823
000200 ba 3d 2a 3e 53 50 f2 bc f3 a2 06 be 2a f0 89 3e
       0.1662511 -0.029579317 -0.13148098 0.26941043
000210 2f 49 93 be 6f ea 08 3b 76 e7 0d 3e 04 95 81 3b
       -0.28766772 0.0020891686 0.13857827 0.0039545316
000220 82 40 fb bc fe 70 0c be 11 a1 20 3e cc a4 15 3f
       -0.030670408 -0.13714978 0.15686442 0.58454585
000230 48 fe 8a 3d 29 f7 a0 3d c4 6d 10 3e 2b 67 cd bd
       0.067867815 0.07859642 0.14104372 -0.10029443
000240 aa 4e 2b be dd 29 d5 be 7a 9a d9 3e 7e f4 8c 3d
       -0.16729227 -0.41633502 0.4250067 0.06882571
000250 54 96 05 be 49 71 86 bc f9 0d b3 3d 97 2d ac 3e
       -0.13045627 -0.01641144 0.087428994 0.33628532
000260 be ea 16 3d fe 37 fb bd a8 2a 8b 3d 97 b0 4d bd
       0.03684496 -0.12266539 0.067952454 -0.050217237
000270 4a 03 24 be 49 c6 b7 3e f2 5c 5f bd 08 0c c7 bd
       -0.1601688 0.35893467 -0.054532 -0.09719092
000280 fb d1 61 3e 27 22 a8 3f dc 62 d1 3d 04 eb 77 3b
       0.22052757 1.3135422 0.10223934 0.003782929
000290 a1 3f 69 bd 86 d8 24 be 3c 60 fc bd 54 0b b5 bd
       -0.056945447 -0.16098222 -0.12323043 -0.08840051
0002a0 fa 1e 89 be 48 1b ef bd 28 10 23 3e 50 3e 55 be
       -0.26781446 -0.11675125 0.15924132 -0.20824552
0002b0 b2 09 79 3d ae 50 a5 3c d3 ff 7d 3d f8 1d 8d 3d
       0.06080026 0.020180073 0.06201155 0.06890482
0002c0 18 da 6e 3e ab b5 2a be ab ef b1 be 77 74 1e 3e
       0.23325384 -0.16670863 -0.34753165 0.15474115
0002d0 be 60 0a 3e 88 ee 36 3e a3 08 3c 3c be 83 a4 3e
       0.13513467 0.1786443 0.0114766685 0.3213176
0002e0 45 4b 09 3d 4c 44 1b 3e 64 f0 c6 3d 4a 8d e8 be
       0.03351905 0.15162772 0.097138196 -0.45420295
0002f0 3c 24 16 be cc e1 25 3e c5 6f 10 be 38 cb ed be
       -0.1466226 0.16199416 -0.14105137 -0.46444106
000300 6b 3f da bb 85 0e 24 be 77 ff 8c 3e b5 6e f3 3d
       -0.006660392 -0.16021164 0.27538654 0.1188635
000310 33 58 e7 bd 38 f1 d5 3e 51 f7 4d 3e a6 d9 29 bc
       -0.112961195 0.41785598 0.20113875 -0.010366833
000320 f1 14 23 be 09 2d 0c 3d 2d 1c 28 3e ab 62 72 3d
       -0.15925957 0.034222636 0.16416998 0.05917613
000330 9f b4 8b bd ff b9 4e 3e 18 75 83 3e ac 28 ea 3d
       -0.0682156 0.2018814 0.25675273 0.11433539
000340 e3 ec 6f be be a4 a2 be cc 42 15 3e 49 b0 d9 3c
       -0.23430209 -0.31766313 0.14576262 0.026573317
000350 b7 9b 61 be d1 ba 5d be ec 7b 4e bd d5 ac fc bc
       -0.22032057 -0.21653296 -0.05041115 -0.030844131
000360 1b ea 87 bd d6 ed 02 3e 5d 33 25 3c 75 07 b5 bd
       -0.06636449 0.1278604 0.010083047 -0.08839313
000370 b5 b1 c6 3a 13 00 97 be 4f dd fb bc 7c 12 8e bd
       0.0015159162 -0.29492244 -0.030745177 -0.06937119
000380 ff 65 aa bd b1 70 03 be 41 3b 00 bd bc 9a 29 3f
       -0.083202355 -0.12835957 -0.03130651 0.6625173
000390 d2 6b d8 bc 73 4a fa be c0 57 9b 3e d2 99 8e be
       -0.0264186 -0.48884925 0.30340385 -0.2785173
0003a0 d8 19 6d 3e 32 71 69 3c 45 e3 3d 3d aa b3 82 be
       0.2315439 0.014248179 0.04635932 -0.25527698
0003b0 50 25 96 3e dd e0 87 3e ba 41 4e 3e 6a 2f 81 3d
       0.29325342 0.26538745 0.2014226 0.06307872
0003c0 56 6a cb 3d 58 0b a9 be 49 15 f3 3e ae fb 3d be
       0.09932391 -0.33016467 0.47477177 -0.1855304
0003d0 23 79 34 bd 82 97 be 3d b4 b7 a2 3c b7 eb 11 be
       -0.044060837 0.093062416 0.019862987 -0.14250074
0003e0 79 79 2a bd 7c f6 05 3f 05 81 e0 3c 39 ad b5 3d
       -0.04161975 0.5232923 0.027405271 0.0887093
0003f0 dc 18 b7 bd 1c bc 9f be 83 24 5f bd d0 0a 9e be
       -0.089402884 -0.31198204 -0.05447818 -0.30867624

fc1.bias f4 [256]
000000 fa 8f a3 be 6f cd 47 bf 95 2a a8 be 09 64 6c bf
       -0.31945783 -0.7804784 -0.32844988 -0.9234014
000010 6f 5b 42 be fc 69 12 bf ef 0e 21 bf 9a a4 71 bf
       -0.18980192 -0.5719297 -0.6291341 -0.9439179
000020 d5 57 b5 be 31 da 4f 3b 93 b0 1f bf a5 84 0d bf
       -0.35418573 0.0031715746 -0.62378806 -0.55280524
000030 e6 74 88 be b4 5c 39 bf a9 a6 81 bf f5 19 0d bf
       -0.26651686 -0.7240708 -1.0128986 -0.5511773
000040 9c 80 d0 be 5f 07 1e bf 99 08 5b bf 45 c3 2c bf
       -0.4072312 -0.6173 -0.85559994 -0.6748546
000050 ae e9 75 bf 01 15 68 bf 7e fb 36 bf 1a b3 6e bf
       -0.9605969 -0.9065705 -0.71477497 -0.9324204
000060 67 1e 10 bf bc 72 21 bf 81 8d 14 bf 7a 21 bc be
       -0.5629639 -0.63065696 -0.5802842 -0.3674429
000070 d1 2d 14 bf b8 cf f7 be c4 ac c0 be 72 a3 f2 be
       -0.5788241 -0.48400664 -0.3763181 -0.47390324
000080 9d 25 bd be 9c 41 0c bf ae ef 1e bf 78 e9 50 bf
       -0.3694276 -0.5478761 -0.6208447 -0.81606245
000090 96 fc 02 bf c7 01 6e be af 16 75 be 2b 6e 37 be
       -0.51166666 -0.23242866 -0.23934434 -0.1791312
0000a0 0c 96 7e be 9b 9a 83 bf 76 27 1f bf 2d fb 33 bf
       -0.24861926 -1.0281557 -0.6216959 -0.7030514
0000b0 ff a8 21 bf d1 98 96 be 80 9f 0a bf 53 c6 3e bf
       -0.6314849 -0.29413465 -0.5414963 -0.7452137
0000c0 0c db 08 bf 12 9c 3c bf f9 95 36 bf f1 65 03 bf
       -0.5345924 -0.73675644 -0.7132259 -0.51327425
0000d0 55 88 16 bf 1d 57 0a bf 9e c1 8f be cc 42 cd be
       -0.58801776 -0.54039174 -0.28077406 -0.40090024
0000e0 82 41 a1 be 96 82 b0 bf d3 ab 5e bf 4a ad 4d bf
       -0.3149529 -1.3789852 -0.8698093 -0.80342543
0000f0 23 c9 5a bf a6 ba 3c bf 63 34 89 bf 05 92 de be
       -0.8546316 -0.737223 -1.0719112 -0.4347078
000100 fd 85 4c bf 6c b9 b1 be 8a d8 cb be a6 1d 1d bf
       -0.7989195 -0.34711778 -0.39813644 -0.61373365
000110 da be f5 be b3 0a b0 be f1 94 32 bf 73 29 66 be
       -0.4799717 -0.34383163 -0.69758517 -0.22476749
000120 ef f7 4f bf 2a 94 5d bf cc b8 11 bf ed ad 76 be
       -0.8123769 -0.86554205 -0.569226 -0.24089785
000130 7a 14 f8 be d4 19 da be a5 11 f0 be eb da e8 be
       -0.48453122 -0.4259783 -0.46888462 -0.4547952
000140 3c 1b 6e be 37 1e 06 bf c7 e1 08 bf 08 75 36 bf
       -0.23252577 -0.52389854 -0.5346951 -0.71272326
000150 98 d4 5f bf 39 21 a6 be 57 73 88 bf 55 e3 0f bf
       -0.8743377 -0.32447222 -1.0660199 -0.56206256
000160 4e c7 a0 bf 1e 8c f4 be 56 0c 0a bf f7 ac 72 bf
       -1.2560823 -0.4776315 -0.53925073 -0.94795173
000170 cf ef d2 be 9e 3f 21 bf 6f 53 57 bf 00 00 54 bf
       -0.41198584 -0.629877 -0.84111685 -0.828125
000180 fb 03 59 bf 1b 03 3b be dd 3a 7d bf a1 d3 58 bf
       -0.847717 -0.18262903 -0.98917943 -0.8469792
000190 7d 96 88 bf 66 6f a6 be 1a 3e 09 bf 53 20 26 bf
       -1.0670925 -0.32506865 -0.53610384 -0.6489307
0001a0 dc 53 b5 be a6 4d 0f bf d8 88 73 bf 2a e3 0f be
       -0.35415542 -0.5597786 -0.9513068 -0.140515
0001b0 3c 28 89 be d8 6b 20 bf 1d a1 d9 be e5 97 6b bf
       -0.2678851 -0.62664557 -0.42505732 -0.9202865
0001c0 10 61 f5 be 57 44 83 bf af 3e a0 bf 2b 25 f3 be
       -0.47925615 -1.0255231 -1.251913 -0.47489294
0001d0 c6 9d f0 be c8 56 6d bf 5c e7 8c bf ed 73 56 bf
       -0.46995372 -0.9271054 -1.1008105 -0.8377064
0001e0 13 8d 2a bf e4 e1 09 bf 65 89 fa be 3f b8 28 bf
       -0.6662151 -0.53860307 -0.4893295 -0.6590614
0001f0 0a 28 61 bf 5b d4 2b bf 87 b3 f2 be ad d7 e2 be
       -0.8795172 -0.67120904 -0.47402593 -0.44305173
000200 4e e0 63 bf 32 c4 60 bf d9 06 5f bf c5 2e 75 bf
       -0.89014137 -0.8779937 -0.87119824 -0.9577449
000210 40 c7 78 bf e3 20 7e bf af 58 86 be 07 e8 41 bf
       -0.9717903 -0.9926893 -0.26239535 -0.7574467
000220 da 85 08 bf 58 ea d6 be cb a8 34 bf c0 58 2c bf
       -0.5332924 -0.41975665 -0.7057006 -0.6732292
000230 53 1d 5d bf 0b 3f 32 bf e8 cc 40 be a4 db 35 be
       -0.8637287 -0.69627446 -0.18828166 -0.17759567
000240 09 bf 06 bf 7d f7 bf be 21 14 2c bf 56 b8 1e bf
       -0.52635247 -0.37493506 -0.67218214 -0.62000024
000250 b2 24 a9 be 53 e5 e3 be 68 fb 09 bf ea b7 70 be
       -0.3303581 -0.44510898 -0.5389924 -0.23507658
000260 0b 17 a9 be 10 29 f7 be f9 59 9d be c8 20 2d bf
       -0.33025393 -0.48273516 -0.30732706 -0.67628145
000270 0f 8b b6 bf f7 a7 3e bf 23 d9 59 bf 74 6a f5 be
       -1.4261187 -0.74475044 -0.8509695 -0.4793278
000280 c6 1e 0a bf 7d 5d a6 be 7e 60 57 bf d3 9f 0b bf
       -0.53953207 -0.324932 -0.8413161 -0.5454075
000290 7f 4d 2e bf 98 2c a9 be 28 d7 35 bf 74 92 33 bf
       -0.68087 -0.33041835 -0.7103143 -0.70145345
0002a0 64 15 ed bd 16 d6 59 be 00 39 df be 86 ed fa be
       -0.115763456 -0.21273074 -0.43598175 -0.4900934
0002b0 ca 66 14 bf 2b c4 b9 be f0 39 e7 be f0 28 1d bf
       -0.57969344 -0.36282477 -0.4516139 -0.6139059
0002c0 c0 80 3b be 29 6a 69 bf 0f 52 86 bf 3c b0 96 be
       -0.18310833 -0.9117761 -1.0493792 -0.2943133
0002d0 65 5a 36 bf 76 89 06 bf c2 a0 28 bf 60 75 4b bf
       -0.7123168 -0.525535 -0.65870297 -0.79475975
0002e0 33 11 2a bf 5a 08 b1 bf 27 f8 21 bf 8e a4 16 bf
       -0.66432494 -1.3830674 -0.63269275 -0.5884484
0002f0 cf e0 41 bf d3 53 f2 be 91 6d 1b bf 53 d0 56 bf
       -0.75733656 -0.47329578 -0.6071406 -0.8391163
000300 04 d2 1c bf 39 ce a5 be 07 87 3b bf be 21 1c bf
       -0.6125796 -0.32383898 -0.7325291 -0.60988986
000310 c1 d9 50 bf 73 8e 43 bf fd e3 47 bf 81 e8 bb be
       -0.81582266 -0.76389235 -0.7808226 -0.36700824
000320 13 64 b1 be ce 60 7a be a7 b2 2b be 41 aa 19 bf
       -0.34646663 -0.2445099 -0.16767369 -0.6002541
000330 d9 6b 3c bf 3f db 3b bf de cd 49 bf 94 2e 81 bf
       -0.7360206 -0.7338142 -0.78829753 -1.009234
000340 85 0a 0e bf 52 b5 1d bf d9 0b fb be bd e4 18 bf
       -0.554848 -0.616048 -0.49032477 -0.59724027
000350 30 47 08 bf 05 e3 2c bf bd 1b be be b9 64 01 bf
       -0.53233624 -0.67533904 -0.37130538 -0.50544316
000360 48 3f 08 bf 79 0b 29 bf df b0 0e bf 5e 3e 0c bf
       -0.5322156 -0.6603313 -0.55738634 -0.54782665
000370 a1 a6 99 be 87 f9 46 bf 61 c7 44 bf f6 40 c1 be
       -0.3000994 -0.777245 -0.7686673 -0.37744874
000380 90 b9 24 bf 74 4d f8 be 07 93 24 bf 52 d8 87 bf
       -0.64345646 -0.48496592 -0.64286846 -1.0612891
000390 bf 08 f9 bd 3e 33 90 bf 36 1a 6d bf da ef d1 be
       -0.12159871 -1.1265638 -0.9261812 -0.41003305
0003a0 aa ae 0a bf 51 2e a4 be a6 80 e4 be 97 9c 8d bf
       -0.54172766 -0.32066587 -0.446294 -1.1063412
0003b0 98 44 3a bf d1 ee 0d bf 71 e2 1c bf 9f 44 08 bf
       -0.72760916 -0.5544253 -0.6128302 -0.5322971
0003c0 d5 dc e2 be 50 39 2d bf ec e9 ad be 08 b4 c7 be
       -0.44309106 -0.67665577 -0.3396753 -0.3900454
0003d0 ca f6 ba be 8e e4 3f bf ac 34 71 bf c2 88 7a bf
       -0.3651641 -0.7495812 -0.94220996 -0.97864926
0003e0 28 c1 3c bf 54 16 12 3d 4e 9a 6b bf 01 6b 03 bf
       -0.73732233 0.035665825 -0.92032325 -0.5133515
0003f0 50 24 81 bf b3 7f 0e bf 4c c2 1f bf d4 b7 0d bf
       -1.0089207 -0.55663604 -0.6240585 -0.55358624

fc2.weight f4 [128, 256]
000000 05 69 a0 3d 62 dc b3 bd 6c 99 f3 bb 5a e1 98 3e
       0.07832531 -0.08782269 -0.007434061 0.2985943
000010 b7 fd 7e bf 4e 2b 46 bc d6 f0 7e 3d 63 10 ab 3e
       -0.9960589 -0.012095286 0.062241398 0.3341094
000020 85 1a 8e be dd 9f 39 be af 77 0a be ec b0 4e be
       -0.27754608 -0.18127389 -0.13522218 -0.20184678
000030 eb cc 91 3d ef 5d 9d 3d 9b 3c 8b 3e ee cc 3e 3d
       0.07119163 0.07683932 0.27194676 0.046582155
000040 ec 92 9c 3d ef 9e e6 be a2 7f a1 3d c8 3e 79 be
       0.076452106 -0.45043132 0.07885672 -0.24340355
000050 6f b7 00 3d ba 0a 6a 3e b6 d2 f7 be de 98 f7 3d
       0.031424936 0.22855654 -0.48402947 0.12089704
000060 d1 f1 2b bf 22 c0 08 be 74 20 ac be 60 f6 9a bd
       -0.6716586 -0.13354543 -0.3361851 -0.075665236
000070 4b d6 58 3e 8b a7 99 bd 3d 97 d5 bb 03 b6 8d be
       0.21175496 -0.075026594 -0.006518273 -0.27677926
000080 c3 05 99 3d ad c9 d3 3c d0 6b 93 be dd aa ae be
       0.07471802 0.025853002 -0.28793192 -0.34114733
000090 ca 9d e7 bc e8 eb 6d bc 4d 10 3c bc cf b5 ed bd
       -0.028273482 -0.014521576 -0.011478496 -0.11606943
0000a0 64 1a 80 3d 8b 45 b8 be d6 07 70 3d d8 63 b4 be
       0.062550336 -0.35990557 0.058601223 -0.35232425
0000b0 e8 98 be be b4 75 41 bf ab 0c 3d bf ec 8f 61 be
       -0.37226033 -0.75570226 -0.73847455 -0.22027558
0000c0 ae 0e bd be 68 8a 82 3e 03 22 1f 3e c7 91 b9 3d
       -0.36925262 0.2549622 0.15540318 0.09061008
0000d0 73 d1 99 bd af c1 23 bd 9d c5 28 3d 38 57 94 bc
       -0.075106524 -0.039979633 0.041204084 -0.018107995
0000e0 12 c7 2a 3d b5 e8 b3 bd 09 28 d0 3d 8d f3 26 be
       0.041693754 -0.0878462 0.10163886 -0.16303845
0000f0 0f d6 ce 3c 18 90 31 3e 9e 4c 32 3f 4c 17 f2 be
       0.025248555 0.17340124 0.6964816 -0.472834
000100 a3 c5 03 3e 62 64 9d 3d 6d 63 94 3a d8 0d 5a bd
       0.12868361 0.07685162 0.0011321135 -0.05323586
000110 b6 a2 8d be b9 af c8 bc 5f b8 49 be ca 8f 42 bd
       -0.276632 -0.024497854 -0.19699238 -0.04750041
000120 12 15 8d bd 80 8f cb be 3c fa 42 3e 10 e0 c6 39
       -0.068887845 -0.3975792 0.1904077 0.00037932443
000130 4c 92 a6 bc 49 1f 36 3e 7f 55 05 be 8c 6a 50 bf
       -0.020333432 0.17785372 -0.13020895 -0.8141258
000140 0d 48 ea be 82 67 95 bb ab ce 95 3d a1 8c 09 3c
       -0.45758095 -0.0045594582 0.073148094 0.008395345
000150 ef d3 c7 be f5 d5 e2 bb 9a 82 8b be 85 92 b9 be
       -0.3902888 -0.0069224783 -0.2724808 -0.36244598
000160 4f 57 82 3f 0a 3e ca be ce 77 70 3b 92 d3 e3 3d
       1.0182894 -0.39500457 0.0036692503 0.11124338
000170 d0 c6 11 bd 9e fc aa bd 2d ff ac 3e a6 21 75 3e
       -0.035589993 -0.08348964 0.33788434 0.23938617
000180 0e da 40 3e 16 d5 dd be 0f c3 4c 3e 80 90 4d 3e
       0.18833181 -0.43326634 0.19996284 0.20074654
000190 0f ca 48 3f 08 b5 86 bc 6f d5 5e bd 7e ca 0b be
       0.78433317 -0.016443744 -0.054402765 -0.13651463
0001a0 ae 40 46 be df 8d a6 3d 2b 17 bd be 86 3d 82 3d
       -0.19360611 0.081325285 -0.36931738 0.06359391
0001b0 6b eb 82 bd 63 87 dc bd b5 2c 6d bc 76 9d ca ba
       -0.06392559 -0.107680105 -0.014475991 -0.0015458304
0001c0 64 eb bc be 77 10 94 3d 19 e4 7b 3e d4 7c cf bd
       -0.3689834 0.07229703 0.24598731 -0.10131231
0001d0 0e 4c 42 3e 47 86 66 3d 5b 83 45 bf da d5 f8 be
       0.18974325 0.0562804 -0.7715356 -0.48600656
0001e0 42 4d 6e be 8f 50 3e bd 6f fc 0c 3e 37 24 12 bf
       -0.23271659 -0.046463545 0.13768171 -0.5708651
0001f0 2e b6 c1 be fc 3a f6 bc a1 75 4a 3d ec 26 9f bd
       -0.37834305 -0.030057423 0.049428586 -0.07771096
000200 d1 1b 7a 3d 3c ab d1 be da e9 29 3e 55 5c 5f 3d
       0.061061684 -0.40950954 0.16593114 0.054531414
000210 11 62 3c 3e f9 2f 62 be 0a 6e f2 3c bc 95 14 3f
       0.18396784 -0.22088613 0.029593486 0.58040977
000220 b4 a6 e9 bd 61 93 b9 bd 4c 59 a6 be 8f fa 1f be
       -0.11408749 -0.090613134 -0.32490003 -0.15622924
000230 14 68 6e be b4 e3 a9 be 40 11 24 bf 5d 47 b5 be
       -0.2328189 -0.33181536 -0.6408882 -0.35406008
000240 96 4f 62 be 63 6c 4a bd 52 ce 09 3e 8e 77 90 bd
       -0.22100672 -0.049419772 0.13457611 -0.07054053
000250 04 bb f5 3d a2 b9 d2 bc 8b be 7c 3c e1 46 c0 bd
       0.11998561 -0.025723282 0.015426288 -0.09388519
000260 5c 24 cc be 7c 9d 1c 3e 17 87 e1 bd e0 49 64 3e
       -0.3987149 0.1529445 -0.110120945 0.22293806
000270 21 eb cd 3e f0 65 70 3e 09 51 57 be 0d 53 0a 3e
       0.40218452 0.23476386 -0.21027006 0.13508244
000280 31 14 48 be a5 42 f6 bd cf 1a 36 3e 68 39 a0 3d
       -0.19538952 -0.1202443 0.17783664 0.078234494
000290 aa 08 20 3e 84 4a e7 bc 2d 43 4d 3e 1e 4b a5 bc
       0.15628305 -0.028233774 0.20045157 -0.02017742
0002a0 a9 47 71 3d 64 3d 18 bd cf 58 e9 3d e6 6d c4 bd
       0.05890623 -0.03716792 0.11393892 -0.09591274
0002b0 b3 20 2c bf ad e9 91 be 0c e3 0d 3d 9c f2 b4 bc
       -0.67237395 -0.28498593 0.034640357 -0.022088341
0002c0 0e dd 8c 3d ec d2 07 3e 6a 35 b6 3e 2b d6 2b 3c
       0.068781 0.13264054 0.35587627 0.010488073
0002d0 26 b0 80 3c 83 81 e7 3d bb fc 9f 3e 5b 4b 6d 3e
       0.015708994 0.11303999 0.31247506 0.23173277
0002e0 65 21 26 bd d0 44 8a 3f e6 d7 16 3e 1f 08 3d bf
       -0.04055919 1.080225 0.14730796 -0.73840517
0002f0 a6 b4 93 be 8b 05 66 bd 53 09 14 3d 2e f3 8f 3d
       -0.2884876 -0.05615763 0.036141705 0.07028805
000300 46 0b 58 be d3 42 1f bc 35 80 a6 be 96 d0 6d be
       -0.2109805 -0.009720522 -0.3251969 -0.232241
000310 dc 0b fb bd 3b d1 66 3e b7 db 4e be 90 e2 5b 3c
       -0.12258121 0.22540753 -0.20201002 0.013420716
000320 1a 28 c3 3c 37 a2 ab be 76 53 2d 3c 5a ed 83 bd
       0.023822833 -0.33522198 0.010578981 -0.064417556
000330 9c 9f 55 3d 07 c2 27 3e 7d da 93 3e 28 84 b1 be
       0.05215417 0.1638261 0.2887763 -0.3467114
000340 7e 38 b2 be 5f 67 23 3e 68 ad 0e be 4e 6b 63 bd
       -0.34808725 0.15957402 -0.13933337 -0.055522256
000350 ce 65 ea be c6 3a ca 3e 34 49 88 be df cc f3 bd
       -0.45780796 0.39497966 -0.2661835 -0.119043104
000360 3d ce bc 3c bf b8 da bd fa f1 ef bc dc 6f 9e 3d
       0.02304756 -0.10679769 -0.029290188 0.07736179
000370 f0 40 00 bf dc b5 c7 bd fd ff e2 be 19 c5 d4 3a
       -0.50099087 -0.09751484 -0.4433593 0.0016233056
000380 6e a9 be 3d dc 42 47 be 61 bd 04 bf 2f 86 ab 3e
       0.0930966 -0.19459099 -0.5185147 0.3350081
000390 cf c4 2e 3d 0d 10 eb 3e 84 3f c3 be 6d 29 a9 3d
       0.04266816 0.45910683 -0.38134396 0.082598545
0003a0 d5 5e 86 3c 6b d4 4d be 64 86 0b bf 5b 60 bc 3d
       0.016402641 -0.20100562 -0.5450194 0.09198066
0003b0 3f df a3 bc 51 22 18 bf 3c 5b 79 3e bb f6 14 3d
       -0.020003913 -0.5942736 0.2435121 0.036368113
0003c0 02 37 66 3d c6 5c b0 bd d0 88 40 bc 52 ab da bd
       0.056204803 -0.08611445 -0.011751369 -0.10677208
0003d0 4c 91 af be c1 9e 86 3d 87 42 95 3e ee 2d 8d be
       -0.3429054 0.06573249 0.2915232 -0.27574104
0003e0 c0 5c 6a be f5 8d fd 3c a9 a4 af 3e 99 76 e3 3c
       -0.22886944 0.03095148 0.34305313 0.027766513
0003f0 07 83 4a 3d 1a 29 4c 3a 8f 92 39 bd 11 78 37 3c
       0.049441364 0.0007788107 -0.045305785 0.01119806

fc2.bias f4 [128]
000000 45 7b 09 3d 82 e2 da 3c ea ed c4 bd 23 27 95 be
       0.033564825 0.026719335 -0.09615691 -0.2913142
000010 32 6f a6 bd 0c 66 9e bd 70 37 a5 3d 0f e9 01 3c
       -0.081266776 -0.07734308 0.080672145 0.007929101
000020 28 8c c9 3d ba 44 7a bc d4 e1 8d 3d 38 d1 8b bb
       0.09841186 -0.015275175 0.06927839 -0.004266884
000030 c7 ca fc bd 6a 79 02 bd 1a 5b ed 3d 86 51 5c be
       -0.12343364 -0.03185407 0.11589642 -0.21515474
000040 73 55 5d be 22 f0 80 bd a3 6b 45 be fd e9 89 bd
       -0.21614628 -0.06295802 -0.19279341 -0.06734083
000050 d1 88 ba be db 8e 9b be f4 0b d3 3d d2 7e 39 be
       -0.36432508 -0.30382428 0.10305014 -0.18114784
000060 da 30 e8 3d 55 b4 de 3d 13 76 ea 3d 42 f9 83 bb
       0.11337443 0.10874239 0.11448302 -0.0040275166
000070 65 7a 30 3d 7a 51 c3 bd 62 96 97 bb c0 c6 63 be
       0.043085475 -0.09537025 -0.0046260813 -0.22243786
000080 7c ce 24 bc d6 2d a0 3d 51 03 9a bd f9 db e0 3d
       -0.010058995 0.078212425 -0.07520164 0.109794565
000090 36 b4 49 3d 82 d5 06 bf 0b 31 6b be 08 f7 9b bd
       0.04924413 -0.5266954 -0.22967927 -0.07615477
0000a0 62 da af be fb e8 a1 be 56 74 58 bc 08 68 c7 3b
       -0.343463 -0.31623062 -0.01321133 0.0060853995
0000b0 22 b4 bb 3c f9 d3 95 3d 7c ac 62 bd 13 b9 14 3d
       0.022913042 0.07315821 -0.055340275 0.036309313
0000c0 cd ab b3 3d f5 08 33 be 7c f4 33 be 0e 88 a8 bd
       0.08773003 -0.17483886 -0.17573732 -0.08229075
0000d0 14 15 35 be b4 ba ab bd 9b c0 12 be 19 7f a5 bd
       -0.17683822 -0.0838522 -0.14331286 -0.080808826
0000e0 ae 1c e0 be 53 96 0e be 99 e5 b2 be ec 4d 67 be
       -0.4377188 -0.13924532 -0.34940794 -0.22588319
0000f0 8a ad bf bd 6e 2b 9a be 9c 91 ae 3d 5a c0 23 3c
       -0.09359272 -0.3011126 0.085238665 0.009994591
000100 e6 07 7f bd 6e 9c 94 3c 10 09 a0 bd 33 9b 07 be
       -0.062263392 0.018140998 -0.078142285 -0.13242798
000110 50 a5 46 be fa 31 bc bd 18 b7 56 3d 8b c9 94 3b
       -0.19398999 -0.0918922 0.052420706 0.0045406274
000120 b2 13 95 be 53 ea b9 bc 65 87 06 bf b6 de 66 be
       -0.2911659 -0.022694742 -0.52550346 -0.22545895
000130 9f 21 ca be 2b 09 b8 3b 81 fd 9e be 3f 8f 9a be
       -0.39478776 0.0056163273 -0.31052783 -0.30187413
000140 4f d8 cd bc 9e d0 8e 3b c9 c0 f5 bc 2f 9f 02 be
       -0.025127558 0.004358365 -0.029999154 -0.12756036
000150 d5 ac cf bd aa 09 ea 3d 0d 5e 4d be cf c6 ce bd
       -0.10140387 0.114276245 -0.20055409 -0.100965135
000160 62 ed 88 be 29 d0 8a bd af ea 29 be 23 d7 6c ba
       -0.2674361 -0.06777985 -0.16593431 -0.00090347434
000170 b1 6e 7b bd f5 cf e5 3c 1e 6f 00 3e 8e 62 1a bf
       -0.06138486 0.028053263 0.12542388 -0.6030663
000180 27 1d 3a be 91 00 f8 be 5c cf f4 3d b4 4a 5a be
       -0.18175183 -0.48437932 0.11953613 -0.2131756
000190 ce 15 4c 3c c2 32 b2 be ca 32 19 3d a4 1e 03 bd
       0.0124563705 -0.3480435 0.03740195 -0.032011643
0001a0 87 6a 71 bb 45 95 59 be fa a5 ec bd 77 b4 a3 3d
       -0.0036837177 -0.21248348 -0.11555095 0.07993405
0001b0 a0 14 0d bf b0 0a 30 bd 17 9d 87 3d db 4c b5 3d
       -0.55109596 -0.042978942 0.066217594 0.0885255
0001c0 b4 e1 54 be 19 87 75 be 62 72 ca be 5d 9b af bd
       -0.20789224 -0.23977317 -0.39540392 -0.08574555
0001d0 7a 30 9e be 34 50 6a be 17 4e 03 bf 90 40 08 3d
       -0.3089636 -0.22882158 -0.5129103 0.033264697
0001e0 17 7f 70 bd d0 29 ea 3b d9 e9 57 bd f3 fc 6e 3c
       -0.058714952 0.0071460977 -0.05271325 0.014586675
0001f0 7f 25 23 3d 06 80 b9 bd 50 39 0f bf 7f 1c 67 be
       0.03983068 -0.09057622 -0.55946827 -0.22569464

fc3.weight f4 [64, 128]
000000 35 19 60 be e7 be b7 be 40 28 02 bf a3 0e 91 be
       -0.21884616 -0.35887834 -0.50842667 -0.2833148
000010 e3 b0 ad be 58 90 df be e7 cc c2 be 48 4f 23 bf
       -0.33924016 -0.43664813 -0.38046953 -0.6379285
000020 2e ec 3c bf 7d 5d c3 be a4 fa 63 bf ba e1 18 bf
       -0.7379788 -0.38157263 -0.8905432 -0.5971943
000030 d7 a7 a2 3c 06 e6 68 be d1 17 40 bf a6 8f f0 bd
       0.019855423 -0.22743997 -0.7503634 -0.11746149
000040 2a f2 67 be b7 73 af be 5d 39 3a be e6 65 22 bf
       -0.22650972 -0.3426797 -0.18185945 -0.63436735
000050 cd cc a5 be a1 1a bb be 90 c3 26 bf 66 d6 f6 be
       -0.32382813 -0.36543754 -0.65142155 -0.48210448
000060 50 8c 88 be 61 b5 a6 be 47 44 1b bf 61 97 e2 3b
       -0.2666955 -0.32560256 -0.6065106 0.0069150184
000070 bd 28 83 be 92 58 0e bf 07 d7 8a be cc f5 5a be
       -0.25617018 -0.556039 -0.27117178 -0.21382827
000080 a1 04 c9 be 92 d7 20 bf e3 73 83 be 46 ee 3e bf
       -0.39261344 -0.62828934 -0.25674352 -0.74582326
000090 2e 62 82 be f0 61 ff be 01 b0 2e be 2e 84 dc be
       -0.2546553 -0.49879408 -0.17059328 -0.43069595
0000a0 3c 13 63 be fb ac b6 be c3 3c 5a bf 88 ae 0c bf
       -0.22175306 -0.3567885 -0.85248965 -0.54953814
0000b0 fd f7 a4 be 88 9f 20 bf f1 9b 2f be 9b 81 80 be
       -0.3222045 -0.62743425 -0.1714933 -0.2509888
0000c0 4d 99 89 bf 45 7a 92 bd 0b d0 12 bf 61 07 79 be
       -1.0749909 -0.07152227 -0.573487 -0.24319221
0000d0 04 24 dc bd 49 ab b8 be 22 40 ce be 87 c7 a2 be
       -0.10749057 -0.3606818 -0.40283304 -0.31792852
0000e0 85 49 ad be 43 b0 19 be c6 5e be be c8 67 e8 be
       -0.33845153 -0.15008645 -0.3718168 -0.4539168
0000f0 f1 e3 16 bf b2 a6 df 3e 80 3e f9 be fb f3 cf be
       -0.5894156 0.43681866 -0.48680496 -0.4061583
000100 bc 71 6d be 53 e5 cd be c2 22 5b bf 4c 78 fb be
       -0.23187917 -0.40214023 -0.8559991 -0.49115217
000110 7a ba 00 bf a0 6d 84 be 95 08 26 bf e0 cd 3d be
       -0.5028454 -0.25864887 -0.64856845 -0.18535566
000120 ea af 17 bf f5 f8 c1 be 82 62 8a be 0d bd 96 3d
       -0.592528 -0.37885252 -0.2702828 0.07360277
000130 8a 36 3b be e7 c9 80 be ea 06 00 bf 5e ef a3 be
       -0.18282524 -0.2515404 -0.5001055 -0.3201856
000140 a9 df 25 bd bd 4f c2 be ed c1 92 be 05 f2 3c be
       -0.040496502 -0.3795146 -0.2866358 -0.18451698
000150 5c 72 9f be e8 90 3e bf 5a 75 54 be 1e 70 4f be
       -0.31141937 -0.7443986 -0.20747891 -0.20257613
000160 ff a6 9b be 3f 83 59 be 73 be d0 be d1 4d f6 be
       -0.30400845 -0.21241473 -0.407703 -0.48106244
000170 d9 d7 de be 43 05 33 bf 93 3e 94 be 3d bc 0a bf
       -0.43524054 -0.69929904 -0.2895399 -0.5419348
000180 db a1 2e be 32 f1 81 be 39 bc 87 bf 3e 9d 78 be
       -0.1705393 -0.2537933 -1.0604316 -0.24278733
000190 a4 ac 1a bf 0a b5 ae be 44 8b 85 be 8b c1 c5 be
       -0.6041968 -0.34122497 -0.26082814 -0.38624224
0001a0 21 2e d7 be 5e 82 c5 bd 76 cf 2c be 4e c5 83 be
       -0.4202738 -0.09644006 -0.16876015 -0.2573647
0001b0 a0 af 11 bf b7 2e 62 be 9c 10 dc be 5d f1 e0 be
       -0.5690861 -0.22088133 -0.42981422 -0.43934146
0001c0 f0 c9 84 be 39 47 ae bd 87 5b 19 be 0c 83 8e be
       -0.25935316 -0.085096784 -0.14976321 -0.27834356
0001d0 e8 65 75 be 9e 0d bc be 8c 7d a2 be 9c 88 84 be
       -0.23964655 -0.3672914 -0.3173641 -0.25885475
0001e0 d3 d4 94 be 94 4a fb be db 93 0c bf 1c 5f 82 bd
       -0.29068622 -0.49080336 -0.5491311 -0.06365797
0001f0 dc b3 b1 be b5 bc 7d be 2c 04 7f be c2 c0 f6 be
       -0.34707534 -0.24779017 -0.24903935 -0.48193938
000200 aa f0 7e be 02 89 28 3e 40 cd 98 3e 71 0a 08 be
       -0.24896494 0.16458514 0.29844093 -0.13285233
000210 cd 9b f0 be 80 33 bd bd 93 2f c5 3d a1 3e 22 3e
       -0.46993867 -0.092383385 0.09628215 0.15844204
000220 ef ff b5 3d 6b 79 14 bc ec 34 b9 3d 4f db 07 3e
       0.08886706 -0.009062151 0.09043297 0.13267253
000230 68 d0 d2 bc bc fa 98 be 49 6b b4 3e df b6 2c bf
       -0.025734141 -0.29878795 0.35238102 -0.6746654
000240 85 72 85 3d c5 02 c3 3d a2 73 36 be 81 57 a5 3d
       0.065159835 0.095220126 -0.17817548 0.08073331
000250 23 c5 d9 bd dc f9 5f be 9d 40 6e 3e 7b 91 14 3d
       -0.10633304 -0.21872658 0.23266836 0.036271553
000260 f4 16 86 bc f4 a1 4a bd bd 56 8c 3e d7 ae b5 bd
       -0.016368367 -0.049470857 0.27409926 -0.08871239
000270 fe d4 27 bf 99 e1 a0 bd a2 a5 a6 be d5 e0 22 be
       -0.65559375 -0.07855529 -0.32548243 -0.15906079
000280 2a 18 b5 3d 3b f2 a8 3e ec 03 0a 3d ec 76 19 3e
       0.088424996 0.32997307 0.033695146 0.14986771
000290 fa 23 dc 3a 84 25 c1 3a fd 0f 46 be 9c f9 80 3d
       0.001679539 0.0014735912 -0.19342037 0.06297609
0002a0 9f db a6 3d bd 34 84 3c d0 7f 80 3e 52 88 94 bd
       0.08147358 0.016138429 0.25097513 -0.072525635
0002b0 9e 5c a5 be 54 f5 82 3e d1 6d 87 be 1d 59 cb be
       -0.32297224 0.25577796 -0.2645097 -0.39716426
0002c0 a5 42 cc 3e 78 25 63 be bb 72 36 3e cd ae 5a be
       0.39894596 -0.22182262 0.17817204 -0.21355744
0002d0 23 73 8a be 13 d0 11 bf 3d 22 2e bd 07 30 27 3e
       -0.27040967 -0.5695812 -0.04251312 0.16326915
0002e0 e2 85 a6 3d 77 16 bb 3d c5 b3 9f 3d ca 88 7e bd
       0.08131005 0.09135144 0.0779796 -0.06214217
0002f0 64 23 c7 3d 98 63 38 be 7a da 5e be 53 9f 6d be
       0.09723547 -0.18006742 -0.2176303 -0.23205309
000300 4c 8a 4e be e6 91 75 be df 4e cd bc 38 c5 ae be
       -0.20169944 -0.23981437 -0.025062023 -0.3413484
000310 c4 ff ca 3d 98 8c 7d be 3e e9 b1 be 5c 9f 7f be
       0.09912065 -0.24760664 -0.34748262 -0.24963135
000320 c5 ec 52 3e 7d c0 53 3e 8e f2 61 3d 80 b2 59 3d
       0.20598133 0.20678897 0.05516296 0.053148746
000330 a1 d8 2f be 75 00 e0 be c7 61 0d bc 67 ea 12 3e
       -0.17172481 -0.4375035 -0.008629269 0.1434723
000340 03 03 60 be d9 73 ac be dc c4 78 3d b3 fe 28 be
       -0.21876149 -0.33682135 0.060734615 -0.1650341
000350 b7 82 c9 be 07 91 b1 3e 81 a5 2d be d8 c0 83 be
       -0.3935754 0.3468096 -0.16957666 -0.25733066
000360 81 e4 b6 3d 17 6e ce be c9 0e a1 3d 74 3d 0a 3e
       0.089303024 -0.40318367 0.07864148 0.13500005
000370 ea 2c 75 be 16 9e c8 3c a5 d4 34 be 6a e3 a0 3d
       -0.23942915 0.024489444 -0.17659242 0.07855876
000380 c5 8f 0d be b9 ff d2 3c 39 fb c0 3d f1 48 85 be
       -0.13824375 0.025756704 0.09422917 -0.26032212
000390 41 04 8e be e0 dd 05 3e 24 e3 17 be 99 bc fa bd
       -0.2773762 0.1307292 -0.14832741 -0.122430034
0003a0 d6 d5 b9 be 8a 2b 01 be 8f f8 27 be f7 55 35 3e
       -0.36295956 -0.12614265 -0.16403411 0.17708574
0003b0 88 30 a0 bd 9d c7 32 be 59 29 80 be 5b 9a cd 3b
       -0.078217566 -0.17458959 -0.25031546 0.006274504
0003c0 0c 7e 1e be aa 9e 05 bf d3 ea e2 be ce 10 44 be
       -0.1547777 -0.5219523 -0.44319782 -0.19147035
0003d0 c2 a7 6a bc b7 97 ac be 32 ac 54 bc fb 73 1a 3c
       -0.014322223 -0.337095 -0.012980508 0.009427066
0003e0 7f fa d5 bd 56 82 72 be 1d b5 5e be c2 da 09 be
       -0.10448169 -0.23682532 -0.21748777 -0.13462356
0003f0 0d 74 08 be d2 d3 b8 be 94 f8 a5 bd a0 3b 16 3e
       -0.1332552 -0.36099106 -0.08104053 0.14671183

fc3.bias f4 [64]
000000 c8 17 6d 3f a5 92 4c 3e d1 eb 97 3d 4e fd f2 3e
       0.9261441 0.19977815 0.07418025 0.4745888
000010 94 48 23 3e 9d f9 de 3d a5 7a 98 3e 30 aa 48 3f
       0.15945655 0.10887454 0.2978107 0.78384686
000020 e1 90 ee 3d b5 58 0e 3f 72 bb 44 3e f5 0f 35 3f
       0.11648727 0.55604106 0.1921213 0.70727473
000030 44 f4 72 3e 43 80 2c 3e 32 e9 f8 3e b1 df 8f 3e
       0.23725992 0.16845803 0.48615414 0.2810035
000040 85 0b 7b 3e 17 a9 30 3f 4c 96 6a 3e 97 a5 7b 3d
       0.24516113 0.6900801 0.22908896 0.061437216
000050 7b 6f de 3d 3f 1a d0 3d 88 12 a7 3e 4e d5 4b 3e
       0.10861107 0.10161256 0.32631326 0.19905588
000060 f6 26 a7 3e b2 70 8b 3f 11 05 39 3e d0 3e df 3e
       0.32646912 1.0893767 0.18068339 0.4360261
000070 e4 6e 72 3e fc a2 e8 bd 0b c5 8a 3e 3c 0f 84 3d
       0.23675114 -0.11359212 0.27103457 0.06448218
000080 05 17 dc 3d 62 b6 36 3f 0d 73 ff 3d a8 c4 62 3e
       0.10746578 0.71372044 0.12473116 0.22145331
000090 07 5b c4 bd ca bc 73 3f 01 81 e1 3d d3 1a 40 3e
       -0.095876746 0.95209944 0.11010934 0.18760233
0000a0 76 dc 67 3d 2d ba 7d 3e 94 55 8c 3e a2 60 a0 3e
       0.056606732 0.24778052 0.2740904 0.31323725
0000b0 af 20 77 3e 3b fc 29 3e 97 e1 e2 3c 35 d7 8e 3d
       0.24133562 0.16600125 0.02769546 0.06974641
0000c0 32 0b 44 3e 00 20 e0 3d 7f 1c 10 3f 09 1a 96 3d
       0.19144896 0.109436035 0.5629348 0.073291846
0000d0 c9 9d 41 3f 5f ca 0d 3e 3d cf fd bd 7b 1a 2d 3f
       0.75631386 0.1384673 -0.12393043 0.6761853
0000e0 36 6d c2 3d 8f b7 24 3f 47 19 20 3f 52 81 e4 3d
       0.094934866 0.6434259 0.6253857 0.111574784
0000f0 60 11 86 3d d3 81 e8 3d 80 78 50 3e eb 70 ab 3d
       0.06546283 0.11352887 0.20358467 0.08371147

fc4.weight f4 [32, 64]
000000 f6 09 b7 bd 6b 11 a0 be c4 81 37 3d 32 94 08 3d
       -0.08937447 -0.3126329 0.04480149 0.033344455
000010 8f 1a f6 be 03 3d f5 3c b7 62 43 be 54 08 96 3c
       -0.48067138 0.02993632 -0.19080625 0.018314518
000020 b5 8d 20 3d 5c b4 80 3c b8 49 ed be 8e 78 67 bc
       0.039197642 0.015711002 -0.46345305 -0.014127864
000030 ae 38 9c be 7d 14 09 3d 64 ec ac 39 c2 d7 b3 3c
       -0.30511993 0.033466805 0.0003298252 0.021953467
000040 0b 28 c1 be 51 67 9f 3c 00 4b fe be 5f 8d a1 3c
       -0.37725863 0.019458445 -0.49666595 0.019720731
000050 d0 3b e5 be ea da fb 3c 97 74 15 be 7d 11 75 be
       -0.44772196 0.030744035 -0.14595257 -0.23932452
000060 af b4 66 3c 72 06 b5 bd 31 ff 11 bc d3 07 0d be
       0.014081164 -0.0883912 -0.00891094 -0.13772516
000070 99 a8 c5 bd c0 dc ed 3c db da 32 3d 5a d7 36 3d
       -0.09651298 0.029035926 0.043665748 0.04463897
000080 e9 8e 21 bf dd b7 7b 3c 01 2f 36 bf 10 32 4e 3c
       -0.6310869 0.015363661 -0.7116547 0.012585178
000090 06 49 59 3d 9a 6d ea bd 5d 32 cc be bb b5 35 bf
       0.053048156 -0.11446686 -0.39882174 -0.70980424
0000a0 4b fa 66 3d 1a 86 88 3c fc 3d 60 be ca d9 eb bd
       0.05639104 0.016665507 -0.21898645 -0.11516149
0000b0 e7 fb 90 be 7e d4 64 3d bf 21 0a bf d4 cf fe 3c
       -0.28317186 0.05586671 -0.5395774 0.03110496
0000c0 ff b7 9b be df 4f ee be c5 58 d2 3c e8 ce 42 3d
       -0.30413815 -0.46545312 0.025677094 0.047560602
0000d0 d3 3c 94 3c 9e b4 cd 3c 85 f4 a4 3c f1 a6 b9 3c
       0.01809541 0.025110539 0.020136127 0.022662612
0000e0 d2 21 f6 3c 97 44 58 3b c9 4b ff 3c 70 3a 34 3d
       0.030045424 0.0032999867 0.031164067 0.044001043
0000f0 fa 23 77 3d 60 bd d5 be e2 f5 89 3c de 34 c2 3c
       0.060337044 -0.41746044 0.016840879 0.02370685
000100 3c da 03 3d b8 e3 33 3d e6 b4 f9 be 2f 7d 69 be
       0.032190546 0.04391834 -0.48770827 -0.2280166
000110 7d 13 2a 3d 66 c4 4f bf fe 20 a0 3c b6 df 1d 3c
       0.04152249 -0.81159055 0.019546982 0.009635856
000120 24 4f 3e bf 60 7c 60 be 0a e4 18 3d 8d 46 a8 3c
       -0.7433951 -0.21922445 0.03732685 0.020541454
000130 fe 94 1d 3d 24 0a 5c bf 14 d1 37 3c 23 49 0b bf
       0.03847217 -0.85952973 0.011219282 -0.5440847
000140 b8 a2 66 3d 5c ad ce bd 1d a3 26 3d 09 02 27 bf
       0.056307524 -0.100916594 0.0406829 -0.6523748
000150 e1 2d 59 3c 9c 9a 1c bf f4 03 01 3d c7 9a 4d 3d
       0.013255567 -0.61173415 0.03149791 0.050196435
000160 ed 69 22 bf 3e 0b 56 bc d1 70 4a 3d 9d 63 95 3c
       -0.6344288 -0.013064204 0.049423996 0.018235976
000170 0b 78 1b 3c ae 2d 0a 3d c1 31 bd be d0 cd ea be
       0.00948907 0.03373497 -0.36952022 -0.45860147
000180 d5 0f 85 3d 1c e0 6d 3c f4 68 37 3d b0 1f 3e bf
       0.0649716 0.014518764 0.044777825 -0.742671
000190 10 66 4a 3c 06 f3 e9 bc f4 10 ab 3c 40 bb 1e 3d
       0.012353435 -0.028558265 0.020882107 0.038752794
0001a0 f9 2b 10 bf 73 52 a4 be 96 06 65 3d 20 40 d9 3c
       -0.56317097 -0.32094154 0.055914484 0.026519835
0001b0 4d ae 19 3d 4e 41 2f bf b4 48 fd 3c 1c 93 33 bf
       0.03751974 -0.6845902 0.030918457 -0.70146346
0001c0 ff 03 b8 3c ce fe 01 3d 76 4c 92 bd cd e6 25 bf
       0.022462843 0.03173714 -0.0714349 -0.648053
0001d0 f5 8d b0 bd 56 81 76 bf ea 7e 85 3c b6 fb 07 be
       -0.08620826 -0.962911 0.016295869 -0.13279614
0001e0 96 09 31 bf 0d 89 89 3c f6 7e 3a 3c 32 06 29 bf
       -0.6915525 0.016788984 0.011382809 -0.6602508
0001f0 e4 b9 04 bf 60 c7 35 3d 12 b9 5a bf 94 ad 7a be
       -0.51846147 0.044379592 -0.85438645 -0.24480277
000200 45 e3 e6 bc 0b 8a 99 be f6 32 35 3d 2e 0d 54 3c
       -0.028184542 -0.2998813 0.044238053 0.012942595
000210 53 0c 28 bf 6e f6 14 3d 10 4b 9a be 0a 21 2b be
       -0.65643805 0.036367826 -0.30135393 -0.16711822
000220 c1 04 45 3c 29 8c 84 3c 21 dc b4 be 5f c4 06 be
       0.012025059 0.016180115 -0.35324195 -0.13160847
000230 fe c9 e7 be 0c ee fe 3c b8 32 a0 be 91 f2 d0 3c
       -0.45271295 0.031119369 -0.31288695 0.02550629
000240 c8 a7 2f bf e7 00 5c 3c 2d 84 5e bf 92 4e ec 3c
       -0.6861539 0.0134279495 -0.86920434 0.028846059
000250 91 10 c3 be 25 78 08 3d 72 1f 20 bf 10 fb ef be
       -0.38098577 0.033317704 -0.6254798 -0.46871233
000260 fa 92 16 3d a5 18 2f 3a e5 17 10 bf 2d 94 41 bd
       0.03676126 0.00066793925 -0.5628646 -0.047260452
000270 81 e4 82 be d6 fd e1 3c f9 79 46 3d 9b a0 24 3d
       -0.2556496 0.027586859 0.048456166 0.040192228
000280 50 5c c7 be 2a 72 73 3c e7 44 d7 be d5 c2 0c 3d
       -0.38937616 0.014858762 -0.42044756 0.034365494
000290 ce 11 1a 3d 65 ec 08 bd 0f 00 da be 57 fe 28 bf
       0.037614636 -0.03342857 -0.4257817 -0.6601309
0002a0 81 7c 5c 3d 31 06 9f 3c 13 d5 20 bf 1b 30 db be
       0.053829674 0.019412132 -0.62825125 -0.4281014
0002b0 ee d4 19 bf 49 50 22 3d f5 0a aa be b8 11 52 3d
       -0.6009053 0.039627347 -0.33211485 0.05128643
0002c0 e5 ee 93 be f1 ee c3 be 61 28 32 3c 2d 9c 96 3c
       -0.288932 -0.38268235 0.010873885 0.018385017
0002d0 81 2a 83 3c 0c 6b 7d 39 9c b4 ca 3c 05 1b 87 3c
       0.016011478 0.00024167838 0.024744324 0.016492376
0002e0 d0 03 7b 3c a7 7a 27 3c 83 f8 c8 bd 32 2a fc 3c
       0.015320733 0.010222114 -0.09813025 0.030781839
0002f0 a3 42 7e 3c 6f 14 8a be 77 24 bc 3c a6 55 69 3d
       0.015518817 -0.26968715 0.022966607 0.056966446
000300 52 7e 3b bf 13 32 c0 bb fd 69 76 be b8 c5 90 bf
       -0.73239625 -0.0058653443 -0.24063869 -1.1310339
000310 68 1d b8 3c 8a ca 1f bf bd 95 96 3c 6c cb 15 3c
       0.02247496 -0.62418425 0.018381948 0.009142738
000320 ea 6d 45 bf 26 c9 a7 bf ef 64 43 3c 91 7a 4f 3c
       -0.7712084 -1.3108261 0.01192592 0.012663499
000330 6c d9 97 3c d7 c3 f8 be f1 3c 57 3c 1d e2 bc be
       0.018536292 -0.48586914 0.013137088 -0.3689126
000340 b2 12 66 bc 03 4e aa bf ca 73 c5 3b 10 f8 26 bf
       -0.014042543 -1.3305057 0.006025766 -0.65222263
000350 d2 ca a6 3b 2d d8 09 bf d2 44 96 3c e5 ed f6 3b
       0.005090096 -0.53845483 0.018343363 0.0075356835
000360 f2 57 5e bf ee eb cb be 4b 2c e4 3c 83 b5 54 3c
       -0.86852944 -0.39828438 0.027853152 0.012982729
000370 78 ef 6a bc d7 24 0c 3c b1 17 82 bf 2c f4 6f be
       -0.01433932 0.008553705 -1.016348 -0.23432988
000380 cb c0 0f 3c 4c 04 11 bb 87 45 bf 3c eb a8 38 bf
       0.008773993 -0.0022127805 0.023348583 -0.7213275
000390 b4 fb 8e 3c 41 64 c9 be bf 69 b6 b9 5c 9a 5e 3b
       0.017454006 -0.393343 -0.00034792532 0.0033966517
0003a0 ac e4 f7 be 62 28 58 bf 53 74 96 3a 57 9f 0a 3c
       -0.4841665 -0.8443662 0.0011478759 0.008460841
0003b0 c8 81 6e ba 1f 15 f4 be 1e bf e8 b9 6f e2 bf be
       -0.00090983184 -0.47672364 -0.00044392882 -0.37477443
0003c0 d8 3a 80 3c 21 72 17 bb b0 64 8f bf e6 7c a3 be
       0.015653059 -0.0023108798 -1.1202602 -0.31931227
0003d0 b6 57 86 bf 41 fd 67 bf 8b 30 2c 3c b2 4d 8e bf
       -1.0495517 -0.9062081 0.01050962 -1.1117461
0003e0 3c 0f 11 bf 8e 4c 99 bf ad 2d 7b 3c d8 ac 35 bf
       -0.5666387 -1.1976488 0.015330714 -0.70966864
0003f0 3e 9e 39 bf 8b f4 90 3c 6c 34 71 bf a8 7a 8e be
       -0.72507083 0.017694732 -0.94220614 -0.27827954

fc4.bias f4 [32]
000000 2c 4c 88 3f 1a 29 80 3f 8e 5d 81 3f 9c 3e 58 3f
       1.0648246 1.0012543 1.0106676 0.84470534
000010 11 82 84 3f 78 d5 88 3f 73 06 83 3f c4 02 75 3f
       1.0352193 1.0690145 1.0236343 0.95707345
000020 8d 73 80 3f 2a bf 87 3f a9 59 76 3f 76 34 74 3f
       1.0035263 1.0605214 0.9623056 0.9539255
000030 02 77 71 3f 16 c0 89 3f ea c6 86 3f 36 a8 66 3f
       0.94322217 1.0761745 1.0529454 0.9010042
000040 0f df 8a 3f 25 03 87 3f 9f b8 84 3f bd d1 80 3f
       1.0849322 1.0547835 1.0368842 1.0064007
000050 06 64 81 3f a7 fe 77 3f 67 01 72 3f 36 82 6c 3f
       1.010865 0.96872944 0.9453339 0.92386186
000060 09 ea 83 3f 44 06 79 3f bd 99 80 3f 23 e5 72 3f
       1.0305797 0.97275186 1.0046917 0.94880885
000070 08 1a 7c 3f 4e 9d 8a 3f af fd 60 3f 5a 63 74 3f
       0.9847722 1.0829256 0.8788709 0.954641

fc5.weight f4 [2, 32]
000000 e0 9a 8e bc 5f c8 26 bd df 72 57 bc 05 79 be 3d
       -0.017407835 -0.040718433 -0.013149946 0.093004264
000010 61 d0 b0 3c 77 75 55 bd 00 24 9e 3d 4f 9f bc 3d
       0.021583738 -0.052113976 0.0772171 0.09210073
000020 ee 09 82 bb 7e 28 99 3d c5 fd c5 3d a1 59 f9 bd
       -0.003968469 0.074784264 0.09667543 -0.121752985
000030 31 ce d6 3c ff 88 15 3d 56 28 0c 3a c6 a9 35 3d
       0.026221367 0.036507603 0.00053465867 0.04435136
000040 38 16 cb bd ea 8b d0 3d d5 04 10 bd 99 87 92 bd
       -0.09916347 0.101829365 -0.03516086 -0.071547695
000050 b2 7a e5 3d 47 60 fd 3c 3b 09 93 3d 25 39 71 bd
       0.11205043 0.030929698 0.07179495 -0.058892388
000060 21 c1 ad 3c c9 9c 78 bd a6 9b 7d bd 04 0a 38 ba
       0.021210255 -0.060696397 -0.061916016 -0.00070205354
000070 b1 e1 ce 3d f2 66 d4 3c 04 f7 8f bd 31 2a 89 bd
       0.10101641 0.025927994 -0.07029536 -0.066975005
000080 20 ba d8 3c d6 63 c2 bd 99 01 12 3d 08 56 65 bc
       0.026455939 -0.094916984 0.035646055 -0.013997562
000090 fb 61 82 3d 1f b2 de bd bc 1e b0 3c ea 81 45 3d
       0.063663445 -0.10873818 0.02149903 0.0482196
0000a0 8c d3 55 3d e6 c3 f2 3d 53 a1 31 3d eb ae 29 be
       0.0522037 0.11853771 0.04336674 -0.16570632
0000b0 cb 64 bd 3d fb dc a5 3d 64 d5 2f 3d 9f 78 32 bd
       0.0924774 0.08098789 0.042928115 -0.043572064
0000c0 c3 f7 64 bd 77 9f 14 3e 0c b0 8d 3c a5 d2 fc bd
       -0.055900346 0.14513956 0.01729586 -0.12344865
0000d0 fa e5 2d 3e 4f dc 02 bd 45 d4 ae 3c 78 04 67 3c
       0.1698226 -0.031948384 0.021341452 0.0141001865
0000e0 fc 98 be bc bb 10 de bd 0c 0d d7 bd 0f 44 b0 bd
       -0.023266308 -0.10843035 -0.10500535 -0.08606731
0000f0 97 bb 5f 3d 9c 26 8d 3d e5 8b 2a 3b cc b4 e8 bd
       0.05462226 0.0689213 0.0026023325 -0.11362609

fc5.bias f4 [2]
000000 35 6f 29 3d 9e 07 aa 3d
       0.04136582 0.08302234
