models/model_heavy.pth (torch, 58736 bytes, 8 tensors)

model.0.weight f4 [128, 26]
000000 10 d9 ad bc 00 89 9c ba 06 de 98 3d 48 cb 8d bc
       -0.021221668 -0.0011942685 0.074642226 -0.017308846
000010 23 ef 06 be 78 3d 56 bd d4 62 10 be 17 a5 0b 3e
       -0.13177161 -0.052304715 -0.141002 0.13637196
000020 aa 5d ef bd 40 9d 17 3b ec 23 31 be f1 9f f0 bd
       -0.11687787 0.00231345 -0.1729886 -0.117492564
000030 20 a4 96 bc 5a 18 af bd 56 e6 c1 3d e8 20 7c bd
       -0.018388808 -0.085495666 0.09467761 -0.06155482
000040 48 9c ee bc 60 99 7c bd 55 12 27 3e d0 e4 61 bd
       -0.029127255 -0.061669707 0.16315587 -0.055149853
000050 a3 cf 23 be 43 1b 08 be 12 45 b1 3d 9c ec 45 3d
       -0.15997176 -0.1329165 0.08655752 0.04832135
000060 71 b8 36 3e 0b 85 f3 bd 78 82 86 bc 18 a7 de 3c
       0.17843796 -0.1189061 -0.016419634 0.027179286
000070 ac 6a 62 3d 1a 31 f5 bd ca 85 00 be e9 2d 27 be
       0.05527751 -0.11972256 -0.12551036 -0.16326107
000080 90 d7 08 3c b0 30 16 3d f0 2e 5b 3d ea a5 a4 3d
       0.008352175 0.036667526 0.05351156 0.08039458
000090 c7 d0 2e be e9 60 36 be 46 97 38 be 25 dc a7 bd
       -0.1707183 -0.17810406 -0.18026456 -0.08196286
0000a0 12 1e d5 3d 06 3f 85 3d d6 34 15 be 2a 80 bb 3d
       0.10406126 0.065061614 -0.14570937 0.09155305
0000b0 f8 04 26 bd c9 34 1e 3e b6 7d a7 3d f6 2f 9c 3d
       -0.040532082 0.15449823 0.08178274 0.07626335
0000c0 23 dc 1c 3e 53 41 0c 3e 4c 9f b7 bd 33 fd 0a 3e
       0.1531835 0.13696794 -0.0896593 0.1357315
0000d0 e8 f7 0f bc 89 ad ff 3d 52 aa 60 be 92 89 12 3e
       -0.008787133 0.12484271 -0.21939972 0.14310291
0000e0 56 1a 7c 3e 72 0c 99 3d 2e 6d 62 be 11 ab cc 3e
       0.24619421 0.07473077 -0.22111961 0.39974263
0000f0 b8 08 9f 3e 33 d3 66 3f 56 86 73 bd 98 7e 8c 3d
       0.3106134 0.90166014 -0.059454285 0.06860083
000100 00 84 fd 3d 94 37 59 be 69 98 58 bd e2 50 b1 3d
       0.123786926 -0.21212608 -0.052879725 0.08658005
000110 b5 87 54 be 6f fd cc be 73 c0 02 bf 77 60 8a 3d
       -0.20754893 -0.40037104 -0.51074904 0.067566805
000120 00 23 0e bf ca 82 c2 be c5 83 3b bf 3e 0f 88 bd
       -0.55522156 -0.3799041 -0.7324794 -0.06643532
000130 7c 8f 3b 3d c3 ad 43 be 84 8f cc be 8e e8 e2 be
       0.045791134 -0.19109254 -0.39953244 -0.4431805
000140 45 a3 ac 3e c7 a9 24 bf b3 47 58 be bf 89 ae be
       0.33718315 -0.6432156 -0.21121101 -0.34089467
000150 9b 92 b6 bc 2e 03 1a bf 68 53 d0 be f3 69 ae bf
       -0.022286704 -0.601611 -0.40688634 -1.3626083
000160 20 98 b9 bd 6b 9d d3 bd 95 be a7 bd 33 64 a4 3e
       -0.09062219 -0.103327595 -0.081906475 0.32107696
000170 2b ec 29 3e 54 ae b2 bd 8a 7d 10 3f e0 a8 f4 3c
       0.16593997 -0.08724657 0.5644156 0.029865682
000180 f6 8a ca 3e 7f a0 ad be 30 32 06 3f 99 e4 1c 3f
       0.39559144 -0.3391151 0.5242033 0.6128631
000190 f8 7f c0 3f e1 80 92 3d 35 d2 d6 3d 95 64 1a bd
       1.5039053 0.07153488 0.104893126 -0.03769358
0001a0 dc f0 ac be c3 c8 ad be c0 99 b1 3d da 84 08 bf
       -0.3377751 -0.33942232 0.086719036 -0.53327715
0001b0 fb 88 d6 be 3c ac 46 bf f9 97 8d bc 8e 0c 61 bf
       -0.41901383 -0.7760656 -0.01728438 -0.8790978
0001c0 b6 c2 5e bf 1d 24 f2 bf f3 8b 09 bc e0 ec 89 be
       -0.87015855 -1.8917271 -0.008395183 -0.26938534
0001d0 b9 9e 33 bd 87 58 79 3e 07 eb 1d 3e 6b cd 42 be
       -0.04385254 0.24350177 0.15421687 -0.19023673
0001e0 e7 78 04 3f e2 7c c8 3e ec 17 f5 3e 4a 2d 55 be
       0.5174698 0.39157778 0.47869813 -0.20818058
0001f0 11 e8 55 3f 7d 98 69 3f dc 91 e6 3f 32 e5 a2 3d
       0.8355723 0.91248304 1.8013263 0.07953872
000200 cd b8 16 bd 2d ad 0b 3e b5 b8 9f bc 56 a6 06 3e
       -0.036797334 0.1364028 -0.019497255 0.1314939
000210 93 ad 30 be 54 9e 27 3e 9c 9a 0a be 7a 6c 4c be
       -0.17253713 0.16368991 -0.13535541 -0.19963256
000220 a7 a7 e0 3c 20 a8 8e 3d ae 44 0c 3c 11 25 98 bc
       0.027423693 0.06965661 0.008561296 -0.018572362
000230 f3 c9 91 bc 10 cb d2 bd ed ad cd 3d d0 fc 32 be
       -0.017796492 -0.10292637 0.10042939 -0.17479253
000240 02 11 1b be 02 57 57 3d 1b d6 60 be ca 98 24 be
       -0.15143207 0.05257321 -0.21956675 -0.1607391
000250 dc ee a3 bd 48 d0 88 bd 89 e0 e7 bd 74 b7 76 3c
       -0.08004543 -0.066803515 -0.113221236 0.015058387
000260 27 eb b9 3d ac cb c6 3d 50 e6 55 bd 63 13 27 bd
       0.09078055 0.09706816 -0.052221596 -0.040789973
000270 00 19 a0 bc 84 3d f7 bd 5c e8 3e 3d d0 e9 74 3c
       -0.01954317 -0.1207228 0.046608314 0.014948323
000280 40 9c 22 3d 17 ce 13 be 10 c9 89 bc c0 81 1d 3c
       0.039699793 -0.14434086 -0.016819507 0.009613454
000290 58 ef e6 3c a9 4a 37 3e 00 0d 33 be 8c 6f 69 3d
       0.0281903 0.17899574 -0.17485428 0.056991145
0002a0 59 3d 2c 3e 6a db cd 3d 50 82 43 bc 6a 9f 12 be
       0.16820277 0.100516155 -0.011932924 -0.14318624
0002b0 c6 48 be bd fe d1 b9 bd d1 0d 38 3e d4 1b 6f 3d
       -0.09291224 -0.09073256 0.1797402 0.05837615
0002c0 7c 4e 3a bd c8 f8 54 bd 92 22 a4 3d 92 13 b1 3d
       -0.045485005 -0.05199507 0.08014406 0.08646311
0002d0 ae 2e 2f be 82 8d 07 be f1 e4 e0 bd 20 34 04 be
       -0.1710765 -0.13237575 -0.10981167 -0.12910509
0002e0 eb a4 1d 3d 03 c7 09 bd 36 43 1f bd 4f 16 1e 3e
       0.038487356 -0.033637058 -0.038882457 0.15438198
0002f0 df 96 aa 3c dc 40 8e bb 33 8c 25 3e 63 fb f0 3e
       0.020823894 -0.004341228 0.16166763 0.47066793
000300 ab 87 4a 3d 22 1d fe bd c2 2f cc 3d 0c 06 c8 bd
       0.04944579 -0.124079004 0.099700466 -0.09766778
000310 ba 41 0b be 18 38 72 bd 50 57 89 be 9c 6e 18 be
       -0.13599291 -0.059135526 -0.26824427 -0.14885944
000320 a7 50 05 be 3e b7 b2 bd 0d 83 61 be 68 b4 ae be
       -0.13019048 -0.08726357 -0.22022648 -0.34122014
000330 7d c5 cf be cb 51 29 3d ef 91 2f be 5b a6 bb 3d
       -0.4058036 0.04133777 -0.17145513 0.09162589
000340 c7 c8 e2 3d 3f 5d 33 bd 07 7c 87 be 63 dd 8a 3e
       0.110734515 -0.0437901 -0.26461813 0.2712203
000350 90 16 c7 3d 3e be a6 3d b6 aa 9a 3d d3 01 a7 3d
       0.097211 0.081417546 0.07552092 0.08154645
000360 16 17 9b 3d 83 0a 04 3f 70 10 c2 bb 6b 0b c0 3d
       0.07572763 0.5157854 -0.0059223697 0.09377178
000370 00 22 92 bb e5 37 7e bd fe 6e a4 bc 28 53 43 bd
       -0.0044596195 -0.062065024 -0.020072456 -0.047686726
000380 dd 49 8b be 9e ac 0c be 34 f7 01 be b7 78 0c bc
       -0.2720479 -0.13737723 -0.12691957 -0.008573703
000390 6f 40 ee be 77 07 5e bd 8c 25 e4 be 17 0d 51 be
       -0.46533534 -0.054206338 -0.44559896 -0.2041515
0003a0 ad 43 20 bd 44 71 e4 3d 9e 70 01 bf 95 38 fc be
       -0.03912704 0.11154416 -0.50562465 -0.4926192
0003b0 4a 48 13 3d f0 54 95 bf 22 03 26 bf c8 42 a1 bf
       0.035957612 -1.1666546 -0.6484853 -1.2598505
0003c0 6c b8 ca 3e 8a 56 11 bf 08 ac 9c bf df e9 4b c0
       0.39593828 -0.56772673 -1.224 -3.1861494
0003d0 dc 3c 27 3e f6 0c f2 bd 7a 62 dc bd 0d ad 20 3f
       0.1633181 -0.11818878 -0.107609704 0.62764055
0003e0 97 6c 02 3f f4 7e 93 3a a3 ea 9e 3f 89 3e e9 3e
       0.50946945 0.0011253045 1.2415355 0.45555523
0003f0 47 41 b7 3f 17 be b3 be 4e 52 5e 3f c5 5c ac 3f
       1.4316796 -0.35105965 0.86844337 1.3465811

model.0.bias f4 [128]
000000 e1 02 28 be 22 ef 96 3d b6 29 6b be c7 0c 95 3d
       -0.16407348 0.0736983 -0.2296513 0.07277828
000010 0f 23 df 3d 91 f7 54 bd d0 c7 22 3c 6c df f6 3c
       0.10895359 -0.05199391 0.009935334 0.030135833
000020 98 0d 2a be 4d de e1 3d 57 27 e4 bc 5e 4a 67 bc
       -0.16606748 0.11028729 -0.02785079 -0.014116852
000030 20 32 a0 bd 41 ea d5 bc 95 21 8c 3b b2 a8 e7 3d
       -0.078220606 -0.026112678 0.004276464 0.11311473
000040 64 a2 8a 3b 60 e7 2a 3d af f1 2e be b7 bb 40 3e
       0.0042307843 0.041724563 -0.17084382 0.18821608
000050 7e 23 c1 3d 48 af 06 bd 82 dd 9a 3d c6 db dc 3d
       0.09430598 -0.032882005 0.075617805 0.10784106
000060 02 e8 82 be de 46 7d bb fd cc 05 be c0 32 15 be
       -0.25567633 -0.0038646976 -0.13066478 -0.14570141
000070 c1 41 22 3e 35 3f 20 bd 25 f7 66 be 8f 6e 60 bd
       0.15845396 -0.03912278 -0.22555216 -0.054792937
000080 df 82 65 3d 10 f3 ce 3c d7 90 51 bd fe 9e df 3d
       0.05603301 0.025262386 -0.05116352 0.10918997
000090 5a 0c cb bd 0e 66 99 3d 7a 67 e7 bd 4a 4f d2 3d
       -0.09914465 0.074901685 -0.112990335 0.102690294
0000a0 bc f7 76 be 40 f6 4b bd 00 63 1d 3b 39 37 79 bd
       -0.2411794 -0.04979539 0.0024015307 -0.06084368
0000b0 b0 79 f2 bc 0f a3 43 3e e0 a1 c9 bd 43 05 67 be
       -0.02959904 0.1910517 -0.09845328 -0.22560601
0000c0 a2 69 d8 3d 00 58 b1 ba d4 eb 1f be 53 64 a2 bd
       0.10567023 -0.0013530254 -0.15617305 -0.079292916
0000d0 b3 f8 08 3d 54 56 18 bd f4 b1 a2 bd 6f ad 1d 3e
       0.033440303 -0.037191704 -0.07944098 0.15398191
0000e0 03 e4 d6 bc e9 67 08 be af 21 0a be e3 08 16 be
       -0.026231771 -0.13320889 -0.13489412 -0.14651828
0000f0 56 6e 91 3d 7d 8e 0b 3e 4a cf c8 bd 96 db aa 3d
       0.07101123 0.13628574 -0.09805162 0.08342664
000100 7d 5a d1 bc 5e 85 06 be 98 ea fc bd a9 cf 41 be
       -0.025555843 -0.13136813 -0.12349433 -0.18926872
000110 be d1 a8 bd c0 21 97 3d f4 e4 6c bd dc a0 f5 3d
       -0.0824313 0.07379484 -0.057835534 0.11993572
000120 ad c2 4e bd 5d f7 cf 3c d5 18 11 3e 6d 0a 02 be
       -0.050478626 0.025386507 0.14169629 -0.1269929
000130 bd 91 23 3e 01 02 e1 bd 2d cb 16 be c5 26 56 be
       0.15973563 -0.1098671 -0.14725943 -0.20913227
000140 0b 44 0f 3e 39 ce e0 3b e1 62 57 be b9 71 6c 3d
       0.139908 0.006860521 -0.21033813 0.057725642
000150 43 29 98 bd b8 09 ff 3d bc 4b 23 be bf 4f 88 be
       -0.07429745 0.124530256 -0.15946859 -0.2662334
000160 88 25 91 3c 8f 92 04 be cd 9d 44 be 75 73 01 3e
       0.017718092 -0.12946533 -0.19200821 0.126417
000170 e2 59 09 be b5 22 3b 3e d0 19 24 bc ab ab 34 3e
       -0.13413194 0.18274958 -0.01001592 0.17643611
000180 9e cc 39 be 2f 61 3a 3e 33 53 14 be de b2 b5 3d
       -0.18144462 0.18201135 -0.14484863 0.08872007
000190 a8 99 f0 3c e5 f4 8d bd 1b 92 cd bd fa 74 88 3d
       0.029370144 -0.069314755 -0.10037633 0.066629365
0001a0 6b 61 d8 3d a7 4e 3b 3e 34 86 f5 bd 5e 48 01 be
       0.10565456 0.18291722 -0.11988488 -0.12625262
0001b0 04 db 05 3e e0 01 44 be 1d ff 47 be 10 17 13 3d
       0.13071829 -0.1914134 -0.19530912 0.035910666
0001c0 d4 b8 5b be 2e 25 9e 3d 61 28 90 3d 33 67 e0 3d
       -0.21457225 0.07721935 0.07038952 0.10957184
0001d0 c8 89 b1 3c 00 44 08 be 45 91 a4 3d f8 6d 6a bd
       0.021672145 -0.1330719 0.080355205 -0.05723378
0001e0 c8 e2 7c bd b1 84 51 be 01 e5 15 3e f1 5c 38 3e
       -0.061739713 -0.20460774 0.1463814 0.18004204
0001f0 c3 a7 6e 3c 52 c4 44 be 2f dd 76 3d d2 86 88 3d
       0.014566365 -0.19215515 0.06026953 0.0666634

model.2.weight f4 [64, 128]
000000 07 7f 8a 3d a5 98 46 bd 46 de 27 bd 23 df 9d 3d
       0.0676251 -0.048485417 -0.04098346 0.077085756
000010 10 c1 83 ba c0 75 f5 ba de 7b 20 3d 7f f6 79 bd
       -0.0010052044 -0.0018727109 0.03918063 -0.061026093
000020 fd 3b 9d 3d 54 d3 29 bd 71 05 1b bd 77 69 26 bc
       0.076774575 -0.041461304 -0.037846986 -0.010156981
000030 e0 0d 7f 3c 46 67 d4 bc 08 6a 1c bc 76 d7 60 3d
       0.015567273 -0.02592815 -0.009546764 0.05489298
000040 33 c3 bc bd e8 35 22 3c fa fc 5b 3d 9b 0d 94 3d
       -0.09216919 0.009900548 0.053708054 0.072291575
000050 80 37 ee 3c f9 4c a6 3d 26 6c 5e 3d ec 42 f6 3c
       0.029079199 0.0812015 0.054302357 0.030061208
000060 b6 3b 89 bd c5 df 6e 3d 68 a0 14 3d 30 35 87 3c
       -0.06700842 0.058318872 0.036285788 0.016504854
000070 26 29 70 bc 93 14 b2 3d 3e 6b 12 3c 98 71 e6 3c
       -0.014658248 0.086953305 0.008936701 0.028130338
000080 56 f5 4b 3d f4 13 82 bc 43 30 25 bd c6 cf 65 3d
       0.049794517 -0.015878655 -0.04032923 0.05610635
000090 be 04 00 bd fc f2 47 bd c6 a7 7d 3d 4d 8e 8a 3b
       -0.031254523 -0.048815712 0.06192758 0.0042283894
0000a0 ab af 9b bc e1 c8 75 bd d1 e0 a4 3d 09 07 9e bb
       -0.019004663 -0.060006026 0.08050693 -0.004822616
0000b0 b0 65 52 bc 5f 86 ab 3d ac 9c 04 bd d3 ce 9a bd
       -0.012841627 0.083752386 -0.032375976 -0.0755898
0000c0 1a e4 42 3d c1 3e 8c bd f4 25 15 3d eb 2e 9e bc
       0.047580816 -0.06847907 0.036413148 -0.019309482
0000d0 73 ee 0f 3d 64 31 c9 3c 6f 54 ea bc a9 c5 90 3d
       0.035139512 0.024559684 -0.028604714 0.07068951
0000e0 f7 44 0b bd cf 86 5e bd c0 a6 a9 3a c0 1b 90 3c
       -0.034001317 -0.054327782 0.0012943372 0.017591357
0000f0 c4 d0 8c bc 7d 2d a5 3d a8 77 53 bc 30 7b 89 bd
       -0.017189391 0.08065317 -0.012906946 -0.06712949
000100 e3 32 23 3d 32 45 40 bc 53 11 0b 3d 3b 63 96 3d
       0.03984345 -0.011735247 0.03395207 0.073431455
000110 1a 4c 5c bd 5f 64 a2 bd 44 7d 23 3b 9d d5 5c 3d
       -0.053783514 -0.079293005 0.002494649 0.053914655
000120 15 91 64 3d 78 74 03 3d ba cb 48 3d 1c ed b9 bc
       0.055802424 0.032093495 0.049022414 -0.02269607
000130 9c 9e 75 bd b1 32 8d bd 27 d9 1d bd a6 c7 73 bd
       -0.059965715 -0.06894434 -0.03853717 -0.05951657
000140 ce bb 5c 3d c0 99 7c 3b 99 88 85 3d 7b 74 62 bd
       0.053890042 0.003854379 0.065201946 -0.055286866
000150 de 3d 26 3d 00 e7 90 bc ac d5 7e bd 93 50 3e 3d
       0.040586345 -0.017688274 -0.062215492 0.04646356
000160 de 22 69 3d b6 b7 86 bd 76 5f 0a 3d 02 3d 4b 3d
       0.056918018 -0.06578009 0.033782445 0.04961873
000170 2b 10 65 bd cd ad a2 3d 80 68 be bc 20 ca b3 bb
       -0.055923622 0.07943306 -0.023243189 -0.0054867417
000180 6a e5 01 bc 10 79 5a bc 4c 38 d4 3c e4 1c c1 3c
       -0.007928232 -0.013334528 0.02590575 0.023573346
000190 e2 c5 7b 3d 62 ff 89 bd 9f 39 8f 3d 7a aa 35 bd
       0.061468013 -0.067381635 0.06993412 -0.044352032
0001a0 3c 63 7f bd 51 90 8b 3d eb 49 91 3d 15 4d 29 bd
       -0.062350497 0.068146355 0.07094177 -0.041333277
0001b0 7b 89 a0 bc c0 f7 fd 3b 38 6e 95 3c 8c 6b 0b 3d
       -0.019596806 0.0077504814 0.018241033 0.03403811
0001c0 b4 cf a6 3d d9 dc 55 bd fc f0 66 3d b9 d6 06 3d
       0.08145085 -0.05221257 0.056382164 0.03291962
0001d0 6e 1c ee bc bf 3f 81 bd 9a 6c 34 bd 53 84 84 bd
       -0.02906629 -0.06310987 -0.044048883 -0.06470551
0001e0 76 1e c3 bd a9 a7 8f 3d 20 35 a8 bb 4c 35 6c bd
       -0.09527294 0.070144005 -0.005133286 -0.057668015
0001f0 03 40 92 bd 8c 46 69 bd 68 d6 07 3c b0 a4 04 bc
       -0.071411155 -0.056952044 0.0082908645 -0.008095905
000200 d3 8d 8f 3d 84 07 74 bd 9c 7a 8e bd b9 17 d4 bd
       0.07009473 -0.05957748 -0.0695698 -0.10356087
000210 a6 dc 2e bd 62 cf 70 3d c8 b5 42 3c a8 cb fa bc
       -0.042690895 0.058791526 0.01188416 -0.030614689
000220 4e fd 5c bd e9 57 74 bc c5 35 92 bd 2e 59 ed bc
       -0.053952508 -0.014913538 -0.07139162 -0.028973188
000230 ab 80 09 bd b3 cb 80 bd c5 6c f5 bc 00 5b e6 bb
       -0.033569973 -0.062888525 -0.029959092 -0.007029891
000240 62 67 70 bd 90 8b 3f 3c ba f1 10 3d c3 6a 90 3d
       -0.058692344 0.011690989 0.03538678 0.07051613
000250 5e 3a 46 3d 4e fa 28 bd 14 76 b1 3c 40 76 0a bb
       0.048395507 -0.041254334 0.02166275 -0.0021127611
000260 a6 3f 85 3c 0d ee 8a bd 12 a7 e6 bb 80 6d 89 3b
       0.016265702 -0.06783686 -0.0070389593 0.0041939616
000270 c4 68 9a bc 0d 2d 3f 3d c4 b6 11 bd 5f db ad bd
       -0.018848784 0.046673823 -0.03557469 -0.08489107
000280 f0 f6 3e bd 23 5b ac 3d 2a 48 3c 3c 3e 11 1c 3d
       -0.046622217 0.084158204 0.011491815 0.03810238
000290 87 f0 b1 bd e5 d7 a3 3d 44 eb 8a bd 37 7b b4 3d
       -0.08688455 0.08000163 -0.067831546 0.08812564
0002a0 48 be 76 3c 9a 70 8d bd 06 f0 14 3d 7c 1f f8 bc
       0.015060015 -0.06906243 0.036361717 -0.03028845
0002b0 f4 32 c5 3c 22 60 7e 3d 79 44 64 bd 6a 1d 5a 3a
       0.024072148 0.0621034 -0.055729363 0.0008320423
0002c0 2a e2 d7 bc a0 2c 95 bb 1e b8 28 3d 6d ee fc bc
       -0.02635296 -0.004552439 0.041191213 -0.030875409
0002d0 2a 78 f9 bd 5c da e0 bc 6a 80 32 bd 20 ac 8c bb
       -0.121811226 -0.027447872 -0.043579496 -0.00429298
0002e0 78 97 c4 bc e1 8f 54 3d b8 80 26 3d 42 72 91 bd
       -0.023998007 0.051895026 0.0406501 -0.07101871
0002f0 50 06 b9 3b 78 54 fd 3c c1 a9 aa bd 70 88 90 bc
       0.0056465045 0.030924067 -0.08333159 -0.017643183
000300 62 1a 3f 3d 93 d8 8a bc c4 cd 9b bd 56 35 ae bd
       0.04665602 -0.016948974 -0.07607606 -0.08506267
000310 b6 06 24 3d 19 36 25 3d 31 92 99 bd 82 f0 61 3d
       0.040045463 0.040334795 -0.07498587 0.055161007
000320 79 aa 47 bd 91 bd 3c bd 3c 04 28 bd 6a ca 20 3d
       -0.04874656 -0.046079222 -0.041019663 0.039255537
000330 b0 70 0d 3d 74 ba d7 3c 80 8a e9 ba c1 88 18 3c
       0.034531295 0.026334025 -0.0017817765 0.009309948
000340 c1 83 13 bd 24 c1 8d bd 48 bf bb 3c d5 61 30 3d
       -0.036014322 -0.06921604 0.022918358 0.04306205
000350 f9 26 0c bd 80 1c 35 3b 38 98 a1 bc 6a 1c 27 3d
       -0.034216855 0.0027635396 -0.019725904 0.040798582
000360 22 6c 3b 3d fb 92 02 bd 26 54 aa bd 62 fd 42 3d
       0.04575742 -0.031878453 -0.08316831 0.047604926
000370 5a cf 5c 3d 57 7f a3 3d 06 e2 65 bd 0c 7f cb 3c
       0.053908683 0.079832725 -0.056123756 0.024840854
000380 db 33 96 bd 18 7c 61 3c f4 95 e4 3c 3e e8 33 3d
       -0.073341094 0.013762496 0.027903534 0.043922655
000390 80 27 69 ba ec f5 9d bd 0d 2e b2 bd 79 69 81 bd
       -0.00088941306 -0.077129215 -0.0870019 -0.063189454
0003a0 a2 98 5c 3d 60 6a a7 3c 87 de 91 3d 75 97 81 3d
       0.0538565 0.020436466 0.07122522 0.06327716
0003b0 35 dc 07 bd bc f8 9a 3c 9b c4 9d 3d da 99 65 bd
       -0.03316899 0.018917434 0.07703515 -0.056054927
0003c0 94 5c 99 3c 00 c1 c5 ba bc f4 e4 3c 8d 6f 03 bc
       0.018720903 -0.0015087426 0.02794873 -0.008022201
0003d0 e2 5a 55 bd 20 f7 15 bc ab 6f 01 3d 32 a7 16 bd
       -0.052088626 -0.0091531575 0.031600635 -0.036780544
0003e0 03 cf af bd ba b0 41 3d be eb 0d 3d f8 d2 d0 bc
       -0.08584406 0.04728768 0.03464865 -0.025491223
0003f0 0c 68 e3 3c f3 98 35 3d b0 ca 01 bc 3a bf 74 3d
       0.027759574 0.044335317 -0.00792186 0.05975268

model.2.bias f4 [64]
000000 3c 8a 6b bd 96 e4 0a 3d 58 d3 d6 bd f9 1d c8 3d
       -0.057504877 0.033909403 -0.10489529 0.09771342
000010 5c c1 62 bc 15 45 53 bd 1a 6a f2 bd f5 de 13 3e
       -0.013840046 -0.051579554 -0.118366435 0.1444052
000020 65 ab 2b 3d bc 14 cf 3c c0 a4 1d 3d 79 93 84 bc
       0.0419115 0.025278442 0.038487196 -0.016183602
000030 5d f0 09 bd 8d 9d 74 3c ee da 43 3d 3b 58 cb 3c
       -0.033676494 0.014930141 0.04781621 0.024822345
000040 71 5e 88 bc 6c 0e 2c 3d d0 a0 02 be 43 18 64 bd
       -0.016646596 0.04200594 -0.12756658 -0.0556872
000050 c6 b9 a5 bd f9 c9 a4 bd 3b 48 30 bd 58 c4 dd 3c
       -0.08092074 -0.08046336 -0.043037634 0.027071163
000060 13 c3 31 3d fc 15 f9 3c a8 47 96 bd bc ac 53 3d
       0.043398928 0.03040599 -0.07337886 0.051678404
000070 8d 78 68 3d 2c d5 bb 3d 1d c5 71 bb 3b b3 b6 3d
       0.05675559 0.09171519 -0.003689117 0.08920904
000080 ce ad fe bd 8a a2 01 be cc 2b 52 bd dd 23 60 bb
       -0.12435494 -0.1265966 -0.0513113 -0.0034201064
000090 56 e5 c6 bc 1b 3b da bd ea fe 9e bd 6c e7 5e bc
       -0.024279278 -0.10655805 -0.07763465 -0.01360498
0000a0 0b 3f 9e 3c 7b ac 50 bd 6a d6 62 3d 29 f9 cf 3d
       0.01931717 -0.05094574 0.055380262 0.101549454
0000b0 77 b2 24 3d 80 d0 bd bd 98 e7 cd bd bd bd c8 bd
       0.04020926 -0.09268284 -0.100539386 -0.09801815
0000c0 5c fc ab 3d 5b 4d 4a bd a2 99 f9 3c 17 1b 6d bd
       0.08397743 -0.04939018 0.030468766 -0.057887163
0000d0 36 fb 0e bc 9d 0d f2 3b 86 c4 b2 bc c2 97 4c bd
       -0.008726886 0.0073868767 -0.021822225 -0.049949415
0000e0 32 3f 6f bb 31 e6 b0 3c ab f3 c5 3c 4e dd b3 bd
       -0.0036506173 0.021594139 0.024164042 -0.08782445
0000f0 bb dd a4 bd a4 6b a6 3c 38 4d 73 bd 44 35 69 3d
       -0.08050104 0.020314999 -0.059399813 0.056935564

model.4.weight f4 [32, 64]
000000 c9 65 ea bd 20 00 c2 3b e5 8e 33 3e ed d9 03 3d
       -0.11445195 0.005920425 0.17534979 0.032190252
000010 72 b3 71 3c be 51 3e bd 5c ae 41 3d cb 60 0a 3e
       0.014752256 -0.046464674 0.047285423 0.13513486
000020 07 55 46 3c e0 5a 21 3c c5 92 9e bd 00 b4 a3 bc
       0.012105233 0.009848326 -0.07742838 -0.019983292
000030 d1 81 7d 3d 1f b8 98 3e 14 45 78 bd 0a 71 1d 3c
       0.06189138 0.29827973 -0.060612753 0.00960947
000040 a2 a0 e3 bc 4e 06 61 3d e0 68 2c 3d 5d 71 82 3d
       -0.027786557 0.054937653 0.042092204 0.063692786
000050 21 2c a6 3d 2d 93 a3 3d bd 2e a8 3d 4c 47 eb bc
       0.08113886 0.07987056 0.082120396 -0.02872052
000060 d1 bb 42 3e de 38 40 bd b5 3b 46 bd bd d9 94 3c
       0.19016959 -0.046929233 -0.048396785 0.018170232
000070 3b 01 b7 3d ee 9e 0a 3c 22 94 a7 3d ca 57 0b be
       0.089357816 0.008460743 0.08182551 -0.13607708
000080 4d dc 6e 3d d0 cd 14 3e e7 93 77 bd 1c 5f 00 3e
       0.058315564 0.14531636 -0.060443785 0.12536281
000090 f6 c7 ec 3d 2d 60 15 3e 1e b8 82 bb 1f 17 81 3e
       0.11561577 0.1458747 -0.0039892336 0.25212952
0000a0 c0 01 e8 3d f0 ba 57 bd 9f 25 c6 3d 63 2d d7 bb
       0.11328459 -0.052668512 0.096751444 -0.00656669
0000b0 52 09 46 3e a8 81 ca 3d 63 88 59 3d 6a bc fc 3d
       0.19339493 0.09888011 0.053108584 0.12340625
0000c0 d4 33 04 3e dd 8e e5 bc 28 2e be 3d b2 b0 e1 3e
       0.12910396 -0.028022224 0.09286147 0.4408012
0000d0 c8 39 00 be 15 7a 39 bd 07 19 38 3c 50 22 73 3d
       -0.12522042 -0.045282442 0.011236436 0.059358895
0000e0 33 1d de 3d 86 1b 3f 3e e1 59 31 3c e7 72 7b bd
       0.10845413 0.18662843 0.010824651 -0.061388876
0000f0 d8 c4 ac bc b2 36 2f bc da 3e 41 be 25 da f0 bd
       -0.021089956 -0.010694193 -0.18871632 -0.11760358
000100 95 6a b7 bb d3 23 c6 3c b1 be 38 3d 90 d2 f5 3c
       -0.0055974224 0.024187004 0.045103732 0.03000763
000110 d0 4b 42 3c ca e3 b9 3d bd a8 85 3e f4 bc a0 3d
       0.011858895 0.090766504 0.261053 0.0784854
000120 59 46 61 3e 1b 5d 30 bd 31 7e d4 3d 9e 2d 24 3d
       0.21999492 -0.043057542 0.103756316 0.040082566
000130 08 48 f3 3c 9e 15 94 3e 21 80 09 3c be 9f 52 3d
       0.029697433 0.28922743 0.008392365 0.051421873
000140 92 40 63 3e 4c 07 dc 3c c0 db bc 3c 7b 98 4d 3d
       0.221926 0.026858948 0.023054004 0.050194245
000150 a8 12 40 3d 35 58 ec bd 7e 5c f9 bb 62 4e 87 bd
       0.046892792 -0.11540262 -0.007609903 -0.06606747
000160 99 e8 4b 3e 93 be e2 bd eb 53 06 bd b2 04 9b bd
       0.19912948 -0.110715054 -0.032794874 -0.07569255
000170 5d 95 e2 3d 2d fe a1 3d 48 e5 2b 3d 70 87 90 bd
       0.11063645 0.07909808 0.041966707 -0.07057083
000180 a3 4e b3 bd ab d1 12 bd 28 27 58 3d e8 16 cc 3d
       -0.08755233 -0.035844486 0.052771717 0.099653065
000190 d0 a4 b6 3d 17 22 8e 3d 1e 8f 4f 3d 01 36 74 3e
       0.08918154 0.06940096 0.050673597 0.23848726
0001a0 b2 c3 20 bc 40 b7 4b bc 0f c5 66 bd c0 28 05 3e
       -0.009812282 -0.012433827 -0.056340273 0.13003826
0001b0 8c 4b cc 3d 48 a3 59 3d dc 1c 20 bd 20 c1 2f bd
       0.09975347 0.053134233 -0.039090022 -0.042908788
0001c0 20 37 ae 3d 40 dd ae 3d 71 b0 02 3e 7b 6c ce 3e
       0.08506608 0.08538294 0.1276262 0.4031714
0001d0 50 ab 83 3d a0 bf bc 3d e4 d1 4b 3e b6 1f 37 3d
       0.0642916 0.09216237 0.19904286 0.044707976
0001e0 9f 68 bc bd d0 59 41 3e f3 6a e3 bc a7 66 8f bd
       -0.091996424 0.18881917 -0.027760958 -0.07002001
0001f0 23 83 cc bd 7d 4f 9d bc c3 39 af bc 06 3f 1e 3b
       -0.0998595 -0.019202942 -0.021389848 0.0024146452
000200 86 49 d9 3d d1 d5 4e be 75 0b 93 3e 4e b5 27 bd
       0.106097266 -0.20198752 0.2871968 -0.04094439
000210 98 20 88 bd fc 66 3c 3e 07 01 79 bc 7f f7 9b bd
       -0.06646842 0.1839866 -0.015197999 -0.076155655
000220 93 6d 11 3c fd ea d9 bc ce f5 e4 bd 2f a6 de 3b
       0.008876222 -0.026601309 -0.11179696 0.006794713
000230 d3 f5 02 bd a6 cc 95 3e 2e 42 cf bd 11 b3 af bd
       -0.031972717 0.29257697 -0.10120045 -0.08579076
000240 58 b3 33 3e a5 ed 4b bd 21 ef f7 3d 82 d1 dc bd
       0.17548883 -0.049787182 0.12106157 -0.10782148
000250 9a 54 55 bd 55 b9 16 bd d0 56 9a bc 6e 18 6e bd
       -0.052082635 -0.03679784 -0.018840224 -0.058128767
000260 5c f7 0a bd c7 64 b0 bc 5c 5e a6 bd f1 60 08 3d
       -0.033927307 -0.02153243 -0.08123466 0.033295576
000270 73 bf e2 bd f8 4a 61 bd 94 ed 0d be 67 30 da be
       -0.11071672 -0.055003136 -0.1386016 -0.42615053
000280 1e 2a 45 bd 70 47 96 bc b8 75 ae 3d 19 63 e2 3d
       -0.04813587 -0.01834461 0.08518547 0.11054058
000290 b8 ca 91 3c c4 24 82 3d c2 e5 0a bd 62 2e 49 3e
       0.01779686 0.06354669 -0.03391052 0.196466
0002a0 ef b3 e8 3d dc a1 c6 bd a4 91 1c bd 34 66 1a bd
       0.113624446 -0.09698841 -0.03822483 -0.037695125
0002b0 b0 5b e2 3d ff aa a3 bd f7 f3 f3 3d 00 35 b6 bd
       0.11052644 -0.07991599 0.11911767 -0.08896828
0002c0 08 16 a2 bd ca f2 06 bc 97 38 1d 3c 9b 42 19 3f
       -0.079143584 -0.008236596 0.009596012 0.59867257
0002d0 14 cc c8 bd 9b 53 0a be 8a e1 2d 3d 5a 16 26 3d
       -0.0980455 -0.13508455 0.04245142 0.04054866
0002e0 5e 11 f0 bd 09 07 4d 3d e5 ab 3b bc c3 ec d7 bd
       -0.117220625 0.050055537 -0.011454557 -0.105432056
0002f0 3c d3 67 bd 2a e0 ec 3c 07 ca d2 be 22 ce 48 be
       -0.056597933 0.028915484 -0.4116976 -0.19609883
000300 88 1e 2a bd ba 18 c4 3d 13 d8 a1 3d 78 8a df bc
       -0.041533023 0.09575029 0.07902541 -0.027287707
000310 de a7 b4 3d 50 07 c2 bc aa ab c7 3d 99 6e ac bc
       0.088210806 -0.023685127 0.09749539 -0.02104883
000320 fc 1d 1a bd a8 1f d6 3d 1e 03 f4 bd 00 49 19 3a
       -0.03762625 0.10455257 -0.11914657 0.00058473647
000330 e8 58 c1 3c 00 c2 a0 bb dc 2f 92 bd 00 ba 47 3c
       0.023601964 -0.004905939 -0.07138035 0.012190342
000340 3c f9 bf bd 80 4e e2 3b 06 13 9a bd dc b8 ed 3d
       -0.093737096 0.0069063306 -0.0752316 0.11607525
000350 72 a8 91 bd a0 93 80 3b 54 f8 9f bd 94 f1 da 3d
       -0.071122065 0.0039238483 -0.07811037 0.106906086
000360 f7 1e 51 bd e0 fc 8c bd 60 fb a7 bd cc eb a2 3d
       -0.05105492 -0.068841696 -0.08202243 0.07955131
000370 30 08 4f bd ba 29 d5 bd 14 f9 33 bd 2c 92 f5 bd
       -0.050544918 -0.10408349 -0.04393871 -0.11990771
000380 86 b6 da bd a0 05 de 3b c0 4b d6 bd 60 0e a2 bd
       -0.10679345 0.006775573 -0.10463667 -0.07912898
000390 2a cf a9 3d e0 0b 91 bb 16 99 f9 bd 00 76 e6 3d
       0.082914665 -0.0044264644 -0.12187402 0.112529755
0003a0 17 ce 97 3d d8 a2 e4 3c 40 e8 45 3d 84 80 e8 bd
       0.074123554 0.027909681 0.048317194 -0.113526374
0003b0 a8 f7 c2 bd d0 42 dc bc a4 59 2e 3d 20 bc fe bc
       -0.09519893 -0.026887327 0.042565957 -0.031095564
0003c0 2b 16 19 bd c0 c3 24 3b 6c 3a 14 3d 3c 5f 23 bd
       -0.037374657 0.002514109 0.036188528 -0.039885744
0003d0 ce e4 f2 3d b4 42 dc 3d 19 e6 79 bd dc a4 91 bd
       0.11860047 0.1075491 -0.061010454 -0.071115226
0003e0 18 bb 8d bd 8a dd da bd 6e 96 84 3d dc 6b 07 bd
       -0.06920451 -0.106867865 0.06474005 -0.033061847
0003f0 00 34 d5 bc 00 cc 78 3d 7c 1d 1b bd 5a 3d c3 bd
       -0.026025772 0.060741425 -0.037869915 -0.09533186

model.4.bias f4 [32]
000000 bc 0d e7 3d 20 bf c0 3c e5 d2 3e be 6d 64 d1 3d
       0.112819165 0.023528636 -0.18635137 0.10224233
000010 41 4b a5 bd 1a 73 ac bd ac 06 8a bc b5 c6 5c 3c
       -0.08070994 -0.084203914 -0.016848885 0.01347511
000020 51 b0 1e 3e 44 86 40 be 8f b7 25 3d d4 7a 72 be
       0.15496947 -0.18801218 0.04045826 -0.23679668
000030 34 59 c7 bc 20 67 53 be ce d8 ba bd 33 e8 c6 3c
       -0.024334528 -0.20644808 -0.091233835 0.024280643
000040 e1 15 88 3d ed 60 1b be 51 9d 5e be 99 fc 62 bd
       0.06644798 -0.15173693 -0.21739699 -0.055416677
000050 f4 c8 35 3d 30 42 57 bd 98 ee 12 be 27 a7 e5 bd
       0.044381097 -0.052553356 -0.14348829 -0.112135224
000060 36 0d eb 3d 6d 04 92 be 25 20 13 3e b5 6f 02 be
       0.11477129 -0.28519002 0.14367731 -0.12737925
000070 e8 04 8d bd 68 84 02 bc 6f 07 16 be 6e 50 22 3e
       -0.068857014 -0.007966138 -0.14651273 0.15850994

model.6.weight f4 [2, 32]
000000 08 19 10 bc 19 31 43 be 66 99 9f be c0 88 8b 3d
       -0.00879503 -0.19061698 -0.3117172 0.06813192
000010 c2 93 f3 bd 8d 1a a5 3c fe 32 c1 bd db 2a 97 bd
       -0.11893417 0.020154262 -0.09433554 -0.07381221
000020 72 10 25 3e 02 1f 1b 3d 45 ce bf 3d f1 cf b3 3e
       0.16119555 0.03787137 0.09365515 0.35119584
000030 89 d2 9c 3e e1 75 fe 3d 86 c6 08 be 96 6e 99 ba
       0.30629376 0.12424827 -0.1335698 -0.0011705931
000040 b5 5e 37 be 02 95 10 3e 96 f8 23 3f ac 49 82 be
       -0.17907222 0.14119342 0.6405119 -0.25446832
000050 0b 83 11 3e 36 84 91 3d e3 82 b3 bd 0a e6 59 3e
       0.14210145 0.07105295 -0.08765199 0.21279159
000060 fd 92 3b 3c 65 55 12 bf 1c 5b 63 be a9 19 49 3d
       0.011448619 -0.5716155 -0.22202724 0.049096737
000070 f9 48 f4 bd dc ca c5 bd 3a 5c 1e be 10 bd fc bd
       -0.11927981 -0.09657833 -0.15464869 -0.12340748
000080 7a 5c 37 3e 31 a7 c6 3d 42 ee b8 3e 23 88 02 3d
       0.17906371 0.09699858 0.36119276 0.03186811
000090 0e a7 a6 bd c5 da ab bc 38 fb d2 3b 51 5b 1c 3e
       -0.08137332 -0.02097834 0.006438639 0.1526921
0000a0 92 94 02 be 99 4a 76 bd 87 b0 be be dd 3b 82 be
       -0.12751988 -0.060129736 -0.37244055 -0.25436297
0000b0 0f 1f b7 bd 28 a9 93 3d d8 a2 ea 3d e0 d2 2f be
       -0.08941471 0.07209998 0.11456841 -0.17170286
0000c0 b0 18 10 3d 6e 56 11 be 45 9e 3b bf 4b fe 6a 3e
       0.035179794 -0.14193127 -0.73288375 0.22948568
0000d0 0d 43 12 3e 87 08 e9 bd 69 ee 85 bd 22 2d 02 bd
       0.1428339 -0.113785796 -0.06539614 -0.031781323
0000e0 97 e7 3d 3e 6e f3 15 3f 83 74 08 3e 56 8c 54 3d
       0.18545376 0.5857457 0.13325696 0.051891647
0000f0 08 99 3c 3d 1e d4 bf 3c ee 92 2a be a6 81 45 3e
       0.04604438 0.023416575 -0.16657612 0.19287738

model.6.bias f4 [2]
000000 8a ef d5 3d ba e1 98 bd
       0.10446079 -0.07464929
