models/model.pth (torch, 6824 bytes, 8 tensors)

model.0.weight f4 [16, 26]
000000 ee 22 bb 3d f7 ba 39 be 94 35 4d 3d 5e 4d e6 3d
       0.09137522 -0.18137728 0.050099924 0.11245225
000010 fb 12 08 3e f2 7c a5 3d f3 d1 09 be c1 b2 0b 3e
       0.1328849 0.08080472 -0.13458996 0.13642408
000020 b9 74 0d 3e 58 db 93 bc 14 83 26 be 70 e1 e7 bd
       0.13814057 -0.018048927 -0.1626094 -0.11322296
000030 10 e8 63 bd 0c 7b 1f be e3 71 40 3e f3 d4 a7 bd
       -0.055641234 -0.15574282 0.18793444 -0.08194914
000040 41 7f 3f 3e 06 ad c3 bd 0e b0 ae 3d 30 a6 80 bd
       0.18700887 -0.09554486 0.085296735 -0.06281698
000050 60 90 ce bd e4 89 5c 3d d7 9b 17 3e 51 c0 04 3e
       -0.10086131 0.05384244 0.14805542 0.12963988
000060 51 6d 0a 3e da 90 ac bd 70 8b d9 bc 4f 94 2d 3e
       0.13518263 -0.08426066 -0.026555747 0.16951106
000070 35 7c 16 be f5 33 9e bd 20 34 45 be 06 bb 9a 3d
       -0.14695819 -0.07724754 -0.19258165 0.07555203
000080 47 18 3a 3e 7a 29 e2 3d 40 64 17 be c8 6a 93 bc
       0.18173324 0.11043067 -0.14784336 -0.017995253
000090 dc 6b 6f 3d b5 ed 47 be 0e 75 3b be 54 13 76 bd
       0.058452472 -0.19524272 -0.18306372 -0.060077026
0000a0 44 97 03 bd 00 be b4 39 7b ee 41 be a6 cf 98 3d
       -0.03212668 0.00034473836 -0.1893863 0.07461481
0000b0 a3 f5 36 be 74 9b 10 bd 13 ff 1d 3e 8c 80 6e bd
       -0.1786714 -0.0353045 0.15429334 -0.05822806
0000c0 e6 36 e9 bd 11 6a 14 3e b2 f0 00 be 42 ea 92 bd
       -0.11387424 0.14493586 -0.12591818 -0.071735874
0000d0 a5 94 c9 3e 37 d6 5a 3e c6 19 9e be 07 d1 4a 3f
       0.3937122 0.21370779 -0.3087904 0.792252
0000e0 35 50 84 3e 19 ba 04 3f 27 a4 a0 be 68 5a 1a 3f
       0.25842443 0.5184646 -0.31375238 0.602942
0000f0 cc 69 4e 3f 1e 5b 09 40 77 fb 7c 3d f2 a3 8b 3d
       0.80630183 2.1461864 0.061763253 0.068183795
000100 d9 85 0b 3e 4e 8d 01 bf af cc 96 be 9b 79 0c 3e
       0.13625278 -0.5060624 -0.29453036 0.13718264
000110 4d 98 59 bf f2 0f 17 bf b6 11 5b bf c5 06 4b bc
       -0.8499802 -0.59008706 -0.855739 -0.012391751
000120 b9 bb 5b bf e3 02 91 bf 64 c9 18 c0 f5 35 3a bd
       -0.8583332 -1.1329006 -2.387292 -0.045461614
000130 77 3d 3b be 27 c1 44 3c 40 03 0f 3d 44 c5 4a bd
       -0.18285166 0.012008942 0.03491521 -0.049504533
000140 20 7b de bb 38 35 d3 bc a8 3c c4 bc 8f c6 14 3e
       -0.00678958 -0.025782213 -0.023954704 0.14528869
000150 56 83 b8 3d b6 92 96 bd 00 b8 e2 ba 21 13 09 3e
       0.09009425 -0.07352202 -0.0017297268 0.13386203
000160 fc 66 23 be f2 0f 8b bd a6 9f b9 bd 07 db ea bd
       -0.15957254 -0.06790151 -0.09063654 -0.114675574
000170 f2 1c 2b be 98 84 bf bc 5e 94 b3 3d ef e2 32 3e
       -0.1671026 -0.023378655 0.08768533 0.17469381
000180 82 05 a9 bd ea 0f a9 3d 52 d8 d4 bd bb c5 07 3e
       -0.08253004 0.082549885 -0.10392822 0.13259022
000190 7c a7 06 3d 1d f6 17 3e 90 01 c1 bc 6c e0 bc bd
       0.03287457 0.14839979 -0.023560315 -0.092224926
0001a0 fe 4f 91 bd 6a 19 10 be 80 9c 58 bd f1 63 16 3e
       -0.070953354 -0.14072195 -0.052883625 0.14686562
0001b0 2c b5 27 be 93 44 1f 3e ae 11 b9 3d 60 d4 96 bb
       -0.16377705 0.15553503 0.09036575 -0.004602954
0001c0 69 56 30 be a6 6a ae 3d c9 e5 b6 bd 42 7d c4 3d
       -0.17220463 0.08516435 -0.08930547 0.095942035
0001d0 46 63 83 3d d6 f3 a3 3d 0e 72 92 3d 31 3d 00 be
       0.06415419 0.080054924 0.071506605 -0.12523343
0001e0 1f 1d a8 bd 28 bc e9 bc a9 2b f3 bd c0 75 69 bd
       -0.082086794 -0.028532103 -0.11873562 -0.05699706
0001f0 ac 4b 42 be a0 d0 02 3c 10 87 e7 bc d7 21 cc bd
       -0.18974179 0.00798431 -0.028262645 -0.09967392
000200 a4 ba 40 be 3f ff 21 be 7f d7 d5 be 6f 45 9b be
       -0.18821198 -0.15820025 -0.41765973 -0.3032641
000210 b3 ec 38 3e 9e ec 60 bf 97 35 14 bf 34 a8 47 bf
       0.18059044 -0.8786105 -0.5789427 -0.7799103
000220 04 b1 08 3e 81 d2 67 bf 48 f6 61 bf a1 9c 0f c0
       0.13348776 -0.9055558 -0.8826642 -2.2439349
000230 bc 8d 01 3d 16 32 70 3d 3f fb 82 3d 12 d2 f3 3e
       0.03162931 0.058641516 0.06395578 0.47621208
000240 8a 9f f3 3e be b1 40 be ed 74 58 3f d9 c5 d9 3e
       0.47582656 -0.18817803 0.84553415 0.42533758
000250 52 99 6f 3f 3f 2e e7 be de dc 1e 3f 6d 0d 8a 3f
       0.93593323 -0.4515247 0.62055767 1.0785347
000260 b4 22 05 40 9a e3 3a bd 43 5e 50 bc eb 76 77 3c
       2.080243 -0.045627214 -0.012717786 0.015104036
000270 61 b4 d2 3e b3 df d4 3e 70 7e fc bd 64 bc 33 3f
       0.41153243 0.4157692 -0.123288035 0.70209336
000280 da 7c 03 3f 77 9a 5d 3f a5 47 96 bd 9b 99 55 3f
       0.51362383 0.8656382 -0.07337884 0.8343751
000290 67 63 64 3f 36 2b 0e 40 13 d5 44 3d 59 b2 d4 3d
       0.89214176 2.2213874 0.048054766 0.103855796
0002a0 cb 9a 1e be df 27 13 bf dc f3 01 bf c7 b0 97 3e
       -0.15488736 -0.57482713 -0.50762725 0.29627058
0002b0 4b 4a 7e bf bb 34 ad be d4 e8 53 bf 68 cb b0 3e
       -0.9933211 -0.33829293 -0.8277714 0.34530187
0002c0 08 6f 57 bf 90 ad 8e bf f4 a4 11 c0 f7 6b 6d ba
       -0.84153795 -1.1146717 -2.275693 -0.00090569205
0002d0 32 52 8e 3d a4 e6 4b bd 02 8d d0 3d 25 45 1d 3e
       0.06949271 -0.049780503 0.10183145 0.15358408
0002e0 f8 06 e6 bc 1d 5b 0a be 06 19 3e be 01 81 42 3e
       -0.028079495 -0.1351132 -0.18564233 0.18994524
0002f0 94 fd 06 3d f8 c7 b5 3c 20 14 93 3b f8 0c 97 3c
       0.032956675 0.02219008 0.004488483 0.018438801
000300 37 7f 42 be 6b 9a 30 be bd 89 3e 3e 36 92 c9 bd
       -0.18993841 -0.17246406 0.1860723 -0.09842341
000310 69 14 1a 3e 0f 35 eb bd f1 3d d0 bd e5 bb ab bd
       0.15046848 -0.114847295 -0.101680644 -0.083854474
000320 83 8a 9b bd 4e 6b 01 be b7 62 dc bd 40 ff 53 bb
       -0.075947784 -0.1263859 -0.10761016 -0.0032348186
000330 74 3d 74 bd 70 67 55 bd 74 df 23 be b8 be d5 bd
       -0.05962892 -0.0521006 -0.1600321 -0.10436767
000340 ab df c1 3e cc 28 2a 3e 9f aa a6 bd fa e5 29 3f
       0.37865958 0.16617125 -0.08138012 0.6636654
000350 90 19 4e 3e 9e e5 31 3f 32 4b 0d be 15 15 60 3f
       0.20126939 0.69490993 -0.13798216 0.8753217
000360 91 e7 73 3f cb 23 0e 40 0f 7b 10 3e 79 77 0d be
       0.9527522 2.2209346 0.14109443 -0.13815106
000370 a4 a9 fc 3d 3f 7f 80 be ee 99 13 bf f3 ce 61 bc
       0.12337044 -0.2509708 -0.57656753 -0.013782251
000380 4b 4d 63 bf 22 2d 67 be 2b 5d 72 bf f7 59 70 3e
       -0.88789815 -0.2257581 -0.94673413 0.23471819
000390 16 88 2f bf ce 0e 90 bf df b9 14 c0 75 a2 36 3d
       -0.68567026 -1.1254518 -2.3238447 0.044588525
0003a0 4f ed 00 bd fe 6b ad bd 3d 87 17 be c8 a9 44 3d
       -0.031476315 -0.084678635 -0.14797683 0.04801348
0003b0 3b 58 98 bd 8f 4e db bd f9 44 0f 3e 69 ad 02 be
       -0.074387036 -0.10708343 0.13991155 -0.12761463
0003c0 26 ca e8 3d 97 49 c0 bd 23 ee 2f be 10 bc a1 bd
       0.11366682 -0.09389036 -0.17180686 -0.07897198
0003d0 a2 bb 29 be e4 93 fb bd 00 1e df 3b b2 88 d8 3d
       -0.16575482 -0.12284067 0.006808996 0.105729476
0003e0 18 cf b8 bc ed 5d 05 be 9a 85 a3 bd df 1a 06 be
       -0.022559687 -0.13024111 -0.07984467 -0.13096188
0003f0 33 c4 04 3e 8b 01 2b 3e 9d 54 18 3e 2c 12 02 3d
       0.12965469 0.16699807 0.14876027 0.03175561

model.0.bias f4 [16]
000000 86 d2 ed 3d a0 45 58 bd 77 7a 0d be 74 f7 66 bd
       0.1161242 -0.052800775 -0.13816248 -0.056388333
000010 00 78 14 bc b8 e2 76 3c e6 9b 81 bd df 41 37 be
       -0.009061813 0.015068702 -0.063285634 -0.17896222
000020 f8 0e d1 bd 7c a3 0a bd 54 ea 40 3d e0 c1 4a 3e
       -0.10207933 -0.033847317 0.047098473 0.1980052
000030 d5 a8 3a 3e d2 0b 15 3e 60 1d e6 3c 37 ab 79 bc
       0.18228467 0.1455529 0.028090179 -0.015238575

model.2.weight f4 [16, 16]
000000 60 f1 d8 bc 12 16 0b 3e e8 8c 5b be fc 07 43 be
       -0.026482284 0.13582638 -0.2144047 -0.19046015
000010 20 d8 6b be ac 43 80 bd 42 f5 04 be a0 51 74 3d
       -0.23031664 -0.062629074 -0.12984183 0.059648156
000020 be 4b 0e be b0 37 f3 bd 8c bd 2c be 18 8f 26 be
       -0.13896081 -0.11875856 -0.16869181 -0.16265523
000030 e8 30 cf bd 84 b1 b4 3d 9a 51 3d 3e 74 ec e9 bd
       -0.1011675 0.08822921 0.1848816 -0.11422053
000040 40 ac 45 be 00 69 00 bd f4 3e 71 be 88 ed 42 3d
       -0.1930399 -0.031350136 -0.23559171 0.04758981
000050 64 f7 e9 bd 5e 4a 5d 3e 18 db 26 3d ac 41 43 3e
       -0.11424139 0.216104 0.040736288 0.1906802
000060 47 33 2d be 58 ed 9f bd e8 0b 3b 3d c0 61 c2 bd
       -0.16914092 -0.078089416 0.04566565 -0.094913006
000070 22 ca 34 3e f2 d0 6d be 65 28 f8 3d 23 f3 01 bd
       0.17655233 -0.23224238 0.1211708 -0.031726014
000080 24 f8 60 3e 46 01 78 be b8 4f 90 bd 16 97 05 3e
       0.21969658 -0.24219236 -0.07046455 0.13045916
000090 d6 90 23 3e e0 fe 00 bd 04 0a fa bd 3c 78 0f be
       0.1597322 -0.031493068 -0.122089416 -0.1401071
0000a0 c0 24 b1 3b 54 66 fd bd 40 a1 34 3c 68 6d 01 be
       0.0054059923 -0.12373033 0.011024773 -0.12639391
0000b0 f0 0e 84 3c dc 05 60 be 36 46 00 be de 74 47 be
       0.016120404 -0.21877235 -0.12526783 -0.19478175
0000c0 f8 9b 65 bd 18 5b 37 3d d1 3f d9 3d 38 29 a7 bd
       -0.056056947 0.04476461 0.10607875 -0.08162159
0000d0 a6 06 25 be ae 56 1e 3e 62 24 17 3f e6 8a 0e be
       -0.16115817 0.15462753 0.5903989 -0.13920173
0000e0 69 0f 1b 3e f0 f7 c0 bc a8 03 15 3d 37 98 b6 be
       0.15142597 -0.023555726 0.03638044 -0.35663006
0000f0 36 10 0f 3e 0d 0e bf be c5 48 c0 3e 2e 51 6a 3d
       0.13971028 -0.37315407 0.3755552 0.057206325
000100 90 bf 0e bd c8 8f ef 3d 8f 58 66 3e 78 6c 6c bd
       -0.034850657 0.11697346 0.2249472 -0.05772063
000110 10 f0 7c be 03 0a 51 3e e4 c0 16 bf 00 c8 39 3e
       -0.24700952 0.20413975 -0.5888808 0.181427
000120 80 8a a2 bd b0 f4 01 3d dc 98 dc 3d 49 98 10 3e
       -0.07936573 0.031727493 0.10771343 0.14120592
000130 e8 af 7b be 69 83 83 3e a4 16 1d be cc 70 ff bd
       -0.24578822 0.25686195 -0.15340668 -0.12472686
000140 52 bd 47 3e a8 59 1b be 9c db 80 3c ca 6f 2f be
       0.19505814 -0.1517092 0.015729718 -0.17132488
000150 a0 d8 44 bc 0b 3d 73 bd 31 69 c4 be 08 77 0c 3e
       -0.012014538 -0.059384387 -0.38361505 0.13717282
000160 00 b7 27 be d6 f4 56 3e 78 02 a2 bd 6c 88 0a 3e
       -0.16378403 0.20991835 -0.07910627 0.13528603
000170 b4 aa 55 be 84 5a 86 3e 4a 9f c3 be 76 f6 8e be
       -0.208659 0.26240933 -0.38207465 -0.2792241
000180 ec cc 10 3e c0 14 4c be 90 ef 87 3e c2 1e 58 3e
       0.14140671 -0.1992979 0.2654996 0.21105483
000190 40 08 d1 3b 3d cf 78 be dd 55 16 3f f6 80 65 be
       0.0063791573 -0.24297805 0.58724767 -0.22412476
0001a0 7c 5a 87 3d b8 ce 31 be 48 d6 e8 bd 38 f4 29 3d
       0.066090554 -0.17364013 -0.11368996 0.04149267
0001b0 0a 47 2b 3e f1 f6 b5 3d 31 1b b6 3e a6 77 89 3e
       0.16726318 0.08884991 0.3556762 0.26849097
0001c0 4e d0 3b be c0 5b 71 bc 80 05 23 bb c8 06 d3 3d
       -0.1834118 -0.014731348 -0.0024875104 0.10304028
0001d0 34 5b 35 be 58 ea 2f be 70 3e b8 bd c4 d6 20 be
       -0.17710572 -0.17179239 -0.08996284 -0.15706927
0001e0 34 60 dc bd b0 1c ec bc 58 8a 78 bd 0c 39 69 be
       -0.10760537 -0.028822273 -0.06067881 -0.22775668
0001f0 5c 1b ce 3d f4 80 87 bd dc 61 66 3e 18 11 fa 3d
       0.10063812 -0.06616393 0.22498268 0.122102916
000200 80 f3 7f bc ce 5f 27 3e ce 0a 01 be 40 88 42 bd
       -0.01562202 0.1634514 -0.12601778 -0.04749322
000210 e8 b7 7b 3d c8 ba 5b be ee 39 43 3e a2 83 7e 3e
       0.061454684 -0.2145797 0.19065067 0.24854901
000220 cc f0 c2 bd 2e 67 11 be 84 72 d9 bd c8 cf 91 bd
       -0.095185846 -0.14199516 -0.10617545 -0.07119709
000230 3a 3e 7e be 70 13 3b bd 64 4b 2d 3e 34 c3 ef 3d
       -0.24828425 -0.045672834 0.1692329 0.11707154
000240 8a 56 47 be 3c 74 a3 3d 42 e3 d3 bd 00 4b 15 3c
       -0.19466606 0.07981154 -0.1034608 0.00911212
000250 6e fa 7a be 0d f4 a0 3d e6 fc 44 3d 04 1a 0d 3e
       -0.24509594 0.07859049 0.048092745 0.13779455
000260 49 13 cd bd c4 64 39 be 4c 77 65 3e 8e dd 91 3e
       -0.10013444 -0.18104845 0.2240879 0.28489345
000270 08 9b 78 3e b3 55 18 bc e1 92 c3 3c 75 53 f8 bd
       0.2427789 -0.009297776 0.023873748 -0.12125293
000280 4a a2 45 3e 4c 36 a1 3d e0 b8 76 bd 08 54 14 3e
       0.1930019 0.078716844 -0.060234904 0.1448518
000290 c8 88 66 3e 44 13 4c be 1c 3d 47 be 44 b7 93 3d
       0.22513115 -0.19929224 -0.19456905 0.072126895
0002a0 0a ce 1e 3e 80 fb 98 3c 30 0a 22 3e 96 26 07 be
       0.15508285 0.018674612 0.15824199 -0.13198313
0002b0 3a f6 68 be 80 82 a0 3d 00 d3 a6 3a 72 b2 38 be
       -0.22750178 0.07837391 0.0012727678 -0.18036821
0002c0 02 a4 51 be 28 fb 07 3d 94 21 d1 bc 6c 09 e3 3d
       -0.2047272 0.033198506 -0.025528707 0.110857815
0002d0 7e 4a 40 3e 96 c6 5e 3d b9 a6 b8 3e 30 a8 2f bd
       0.18778417 0.054388605 0.360647 -0.042885005
0002e0 c1 60 55 3e c0 7f 29 be a8 de 19 3e d6 2f 24 bd
       0.2083769 -0.16552639 0.15026343 -0.040084682
0002f0 d4 9b d7 bd 0a 09 3d be 79 a1 ed 3e d9 25 04 3e
       -0.10527769 -0.1846048 0.46412256 0.12905063
000300 50 cc 2c 3e 04 cb 14 be 76 e2 40 bd 6a cc 46 be
       0.16874814 -0.1453057 -0.04709097 -0.19413915
000310 80 03 6e 3b 8d cb 89 be 43 77 41 3e e0 d3 0e 3e
       0.0036318004 -0.2691311 0.18893151 0.13948011
000320 b4 94 1b 3e 40 99 5b 3c 64 f8 73 be bd 22 b6 ba
       0.15193444 0.013403237 -0.23825222 -0.0013895851
000330 20 d5 89 3c 48 99 08 3d f7 6c 58 be 18 30 49 bd
       0.016825259 0.033349305 -0.21135317 -0.04911813
000340 56 3e 5d be e4 4e c4 3d 0b 1f 08 3d e6 49 55 3e
       -0.2160581 0.0958536 0.03323273 0.20828971
000350 0a 86 69 3e c7 99 83 3e d8 23 00 bf c8 58 31 be
       0.22805038 0.2570326 -0.50054693 -0.17319024
000360 c7 f7 b4 bc c4 16 ca 3d 10 ad 46 3d 33 51 65 3e
       -0.022090806 0.098676234 0.04850489 0.22394256
000370 50 23 e1 bc 7f 4b 4d 3e 6b c4 b3 be 7c f7 00 be
       -0.027482659 0.2004833 -0.35110793 -0.12594408
000380 0c bb c3 3d d0 17 ee bc 1f f3 34 3e 90 fc b5 bc
       0.09557161 -0.029064089 0.17670868 -0.022215158
000390 88 24 db 3d d7 aa 13 3e 28 b1 1c 3f fe 3f 48 3e
       0.10700327 0.14420639 0.6120782 0.19555661
0003a0 56 72 75 3e ec 57 35 be 9c 18 75 be 53 bf a7 be
       0.23969397 -0.17709321 -0.23935169 -0.32763156
0003b0 4a 87 49 be d0 33 94 be 69 a4 10 3f c0 60 b2 3d
       -0.19680515 -0.2894578 0.5650087 0.0870986
0003c0 4e b9 7d be 5e c5 0f be 00 4e a0 bd 5c b7 16 3e
       -0.2477772 -0.14040133 -0.07827377 0.14718384
0003d0 d0 04 07 be 00 ad 76 be 80 01 34 3e 60 f3 e8 bd
       -0.1318543 -0.24089432 0.17578697 -0.11374545
0003e0 d0 ef 77 bd 4e fa 59 be 94 9c 5e 3e 00 dd b6 3c
       -0.060531437 -0.2128689 0.21739417 0.022322178
0003f0 7c cc 65 be 80 3d 24 bd 40 5b d3 3c 38 a4 33 3d
       -0.22441286 -0.040097713 0.025800347 0.043857783

model.2.bias f4 [16]
000000 90 c7 ab bd f2 66 13 bd 18 ad 2b 3e 8c cf 04 bd
       -0.08387673 -0.03598685 0.16765249 -0.032424495
000010 72 40 86 be 88 95 86 3e 6c c0 78 3c b0 18 7a be
       -0.26221043 0.26285958 0.015182596 -0.2442348
000020 10 78 c6 bc 99 b3 1f 3d dc e8 3e be bc b9 70 be
       -0.024227172 0.038989637 -0.18643516 -0.23508352
000030 81 df 6b 3c 0c 1d 61 bd d2 16 1d 3e 38 f8 24 bd
       0.014396549 -0.054959342 0.15340737 -0.040275782

model.4.weight f4 [16, 16]
000000 10 44 3d bd 70 86 d1 3a 08 9f 21 bd 86 a2 ad bd
       -0.046207488 0.00159855 -0.039458305 -0.084782645
000010 7e 71 a3 3d 5a 9c 50 be 80 83 3c 3e ca 85 4f be
       0.07980631 -0.20372143 0.18409538 -0.2026588
000020 60 86 06 3d 49 0b 1e 3e 00 57 66 3c f4 5a 92 be
       0.032842994 0.15433992 0.014058828 -0.28585017
000030 7d e2 d2 3d 5b 62 e8 3d d7 e6 ec bd 00 db 67 3e
       0.102971055 0.11346885 -0.11567467 0.22642136
000040 c0 c6 70 3d 34 40 81 bd 2c fa 7d 3e 5d 39 00 3e
       0.058783293 -0.06311074 0.24802464 0.12521882
000050 77 4e 36 3e ef 4f 16 3e 84 db 55 3e 12 2d 3c be
       0.1780337 0.1467893 0.2088452 -0.18376568
000060 30 e8 4d 3e 72 f4 a9 3c da 39 7d be be 97 ac 3e
       0.20108104 0.020746443 -0.247291 0.3370952
000070 12 2e 01 be 8d 79 92 be 66 98 85 3e 14 f0 5a be
       -0.1261523 -0.2860836 0.26092833 -0.21380645
000080 e8 04 70 3d dc cb bd bd 34 b9 27 3e 94 f2 57 be
       0.05859843 -0.09267399 0.16379243 -0.2108863
000090 18 38 61 bd 74 82 93 3d 64 e6 05 be b2 b5 17 3e
       -0.054985136 0.07202616 -0.13076168 0.14815405
0000a0 08 c7 ee bd 26 3f 62 be 08 f2 ae bd b0 7b 2a 3e
       -0.11659056 -0.22094402 -0.085422575 0.16648746
0000b0 98 ab ab bd 9c a9 a3 bd c0 a7 70 bc 6c 68 c9 bd
       -0.08382338 -0.07991335 -0.014688432 -0.0983437
0000c0 bc 84 f0 bd c4 74 26 3d 92 e6 0d be 2c a1 e9 be
       -0.11744067 0.0406387 -0.13857487 -0.45630777
0000d0 aa 02 08 3e 73 8b 72 bd 01 13 9f 3d 98 89 1d be
       0.13282266 -0.05921502 0.077672966 -0.15384519
0000e0 f6 3e 53 be 5d ef 90 3e 48 ae 95 3d a2 28 0a bc
       -0.20629486 0.2830762 0.07308632 -0.008432539
0000f0 fc cc 80 bd 45 2e 49 3e d8 aa f8 bd d2 3b 29 3e
       -0.06289098 0.19646557 -0.12141961 0.16526726
000100 a4 96 2e 3e d9 49 19 be 0c 9f 48 be 0f e7 ba 3d
       0.17049652 -0.14969577 -0.19591922 0.09126102
000110 8e 6a 81 3e 45 b7 b2 3e 48 05 39 3c c8 df 4e 3d
       0.25276607 0.3490545 0.011292763 0.050506383
000120 6c 70 d1 3d b3 56 00 3e 1e 47 47 3e 59 18 13 3c
       0.10226521 0.12533073 0.19460723 0.008977973
000130 a1 64 69 3e eb 96 15 3e 15 f4 06 be a2 8a 22 be
       0.22792293 0.14608352 -0.13179047 -0.15873197
000140 70 5d 6b be 24 73 11 3e 44 cc 30 3e c4 2d c0 bd
       -0.22984862 0.14204079 0.17265421 -0.09383729
000150 94 94 39 3c 82 b8 00 3f b1 c1 dd bd b4 f2 0f be
       0.011326928 0.50281537 -0.10827959 -0.14057428
000160 d0 b8 04 3d 4a 0e 86 bc f0 51 fb bc 91 7b 6c 3e
       0.032402813 -0.016364235 -0.03067872 0.23094012
000170 4d 72 e0 bd e4 6d 9a 3e f6 3a 08 3c 0c ee 9a bd
       -0.10959301 0.30161965 0.008314839 -0.07564935
000180 26 d2 44 be 20 43 43 3d f8 eb 06 3e e5 87 92 be
       -0.1922079 0.047671437 0.13175952 -0.28619304
000190 39 ce 46 3e 07 52 18 3f 6d 41 0d bf 30 26 e7 bc
       0.19414605 0.59500164 -0.55177957 -0.028216451
0001a0 28 be 2d 3d b5 01 44 3d d0 75 2b 3e d8 58 1f be
       0.042417675 0.04785319 0.1674416 -0.15561235
0001b0 40 81 54 bc 6e 5f 9d 3d 31 a1 8d be 2a 87 26 3e
       -0.012970269 0.076842174 -0.27662042 0.16262498
0001c0 da b3 53 3e df 72 4c 3e c8 56 e5 3d 4c f5 c3 bc
       0.20674077 0.19965695 0.11198193 -0.023920678
0001d0 6b d2 8d 3e 5f d6 b9 3e 84 87 1d be 00 f0 61 b9
       0.276996 0.36296365 -0.15383726 -0.00021547079
0001e0 cc 45 66 be 41 e6 b6 3d c4 45 e3 3d 16 9b 06 be
       -0.22487563 0.08930636 0.11097291 -0.13145098
0001f0 9a bb 1f be 76 cc 4d 3e f7 6d 2d 3e 5c 1b 71 be
       -0.15598908 0.20097527 0.1693648 -0.23545593
000200 24 0c a3 3d dd 42 31 3e c8 e2 40 3d 9c e9 ae bd
       0.079613 0.17310663 0.047091275 -0.08540651
000210 77 16 24 3e 33 5d b3 3e 25 4e 43 be 64 34 ef bd
       0.16024195 0.35032043 -0.19072779 -0.116799146
000220 d2 9a 11 3e 1f f3 86 bc 54 ad b3 bd bb 0b 02 be
       0.14219216 -0.016473351 -0.08773294 -0.12699787
000230 f4 2e 2f be ca c4 7c bb 13 28 5c 3e a8 5a 77 bd
       -0.17107755 -0.0038569444 0.21499662 -0.06038919
000240 90 60 da bd 75 90 12 3e e0 f8 95 3c 57 05 2e 3d
       -0.10662949 0.14312918 0.01830715 0.04248556
000250 33 ae 6a bd 7c ca ca 3e fa 45 96 bd 80 47 74 be
       -0.057295036 0.39607608 -0.07337566 -0.238554
000260 04 d9 f0 3d f8 e9 73 3e c2 4d 5f 3e 40 1c 84 3c
       0.117601424 0.23819721 0.21807006 0.016126752
000270 c7 90 a2 bd 3d f4 d5 bc c2 69 f4 bd 80 da 64 3d
       -0.0793777 -0.026117438 -0.11934234 0.05587244
000280 b4 d4 64 be 37 fb b6 bd 6c 92 5e 3e c2 b2 1d be
       -0.22346765 -0.08934634 0.21735543 -0.15400222
000290 a3 04 d2 3c 8b ea f2 3d f6 4d 96 3e 58 11 13 be
       0.025636977 0.11861142 0.29356354 -0.14362085
0002a0 c8 11 b5 3d b9 e3 3f 3e 5a bc 7d be 47 70 32 3e
       0.08841282 0.18739213 -0.24778882 0.17425643
0002b0 3d 17 b5 3d 42 87 80 be 71 6b 56 3e 20 26 aa bd
       0.08842323 -0.25103194 0.20939423 -0.08308053
0002c0 d2 1f 0a be 0f d1 2a 3e 50 e2 28 3d 4b 5e 04 3d
       -0.13488701 0.16681312 0.041231453 0.032316487
0002d0 e3 13 e9 3d bc 04 e8 3e e6 cb b4 3d d6 04 77 3e
       0.11380746 0.45316112 0.08827953 0.24122939
0002e0 00 26 44 ba 0e ba 17 3e 7c ca e9 3d be 8f 10 be
       -0.0007482469 0.14817068 0.11415574 -0.14117333
0002f0 95 d2 73 3d 97 a0 7f 3e 13 5d ee bc 2e e3 63 be
       0.059527 0.24963604 -0.029097116 -0.22254631
000300 5e bf 0b 3e ac 82 80 3d 04 6a 9c bd 7c 93 87 3e
       0.1364722 0.06274924 -0.076374084 0.2647971
000310 d9 ad 4d be 60 df dc 3e 5e cf ef 3e 24 15 67 3e
       -0.20085849 0.43139172 0.46837896 0.22566658
000320 e8 c2 61 bd a1 1b 53 3d f6 5c 64 3e d8 44 9f 3e
       -0.055117518 0.05154002 0.22301087 0.3110721
000330 5f 58 05 be 6e 08 ef bd 6b 5f 4d 3e 48 81 6a 3d
       -0.13021992 -0.1167153 0.2005593 0.0572522
000340 00 37 c2 3c fe 1f 59 3e 00 3b 3a be 36 56 0c be
       0.023707867 0.2120361 -0.18186569 -0.13704762
000350 b8 45 46 3e ce 1d ba 3e a6 66 bd be 78 1d 8e 3d
       0.19362533 0.36350864 -0.36992377 0.069392145
000360 b4 74 63 3e ad 22 2d 3c de fb 4f 3e 9e 27 61 be
       0.22212487 0.010567349 0.20310923 -0.21987769
000370 cc e7 b1 3d c0 99 7e 37 e2 c3 40 bd ac 39 41 3e
       0.0868679 1.51753775e-05 -0.04706181 0.18869656
000380 7e cc 48 3e 7d 53 91 3d 64 36 bb bd 6e 22 2c be
       0.19609258 0.07096002 -0.091412336 -0.16810009
000390 15 44 19 3e 8e 0f f0 3e 6b 0c f7 bd 30 9d 30 3d
       0.14967377 0.46886867 -0.120629154 0.043118656
0003a0 38 96 e6 bd 76 84 31 3e 98 42 77 be dd 64 76 3e
       -0.11259121 0.17335686 -0.24146497 0.24061914
0003b0 78 70 9b 3c ec 5c b7 3e 90 f4 30 3c ac 9b 0a be
       0.018974528 0.3581308 0.010800496 -0.13535947
0003c0 70 88 e4 3d 9a 6f 3b be 72 0c 61 be 4f 6b e8 3d
       0.11158836 -0.18304291 -0.21977404 0.113485925
0003d0 0e 13 91 3e 2d 02 ac 3e b2 a0 54 be 0a f2 36 be
       0.2833485 0.3359541 -0.20764425 -0.17865768
0003e0 14 e5 14 be b3 6e 10 be 56 22 3c be 60 51 2e 3e
       -0.14540511 -0.14104728 -0.18372473 0.1702323
0003f0 99 92 53 be 16 f7 98 3e cd d7 8b bd 30 49 89 bd
       -0.20661391 0.29876012 -0.0682827 -0.067034125

model.4.bias f4 [16]
000000 9c e1 0b 3e ec a7 93 3c de b4 4f be e7 e5 c6 3d
       0.13660282 0.018024407 -0.20283839 0.09711819
000010 a2 1b a8 3d 77 93 52 be fb 85 2d be 8c c1 df bd
       0.082083955 -0.20564066 -0.1694564 -0.10925588
000020 60 a1 84 3d 1f 09 a7 3d f1 84 13 3d ab 84 85 ba
       0.06476092 0.081560366 0.036015455 -0.0010186633
000030 68 ec b4 bd 91 2b 2b 3d 29 f6 ac 3c 41 fb 2c be
       -0.088341534 0.041789595 0.021113472 -0.16892721

model.6.weight f4 [2, 16]
000000 ce 84 16 3e ed 18 22 3e 2a 6e 22 3e c9 f5 d7 3d
       0.14699098 0.15829821 0.15862337 0.10544927
000010 94 68 a0 bd f8 71 94 be e2 eb 2d bf e0 fb 77 be
       -0.07832447 -0.289932 -0.67938054 -0.24217176
000020 41 1b bf bd 84 81 13 be bc 29 ad 3c 49 a5 87 be
       -0.0933137 -0.14404875 0.021138065 -0.2649329
000030 04 ab 5a 3e f8 8c 30 bf 2c b5 8e be 33 66 12 bd
       0.213543 -0.689651 -0.27872598 -0.035741996
000040 d6 6b 25 be 3d 19 12 be b4 9d f1 3d 9e 91 81 be
       -0.16154417 -0.1426744 0.117976576 -0.2530641
000050 c5 78 66 3e 6a 61 a0 3d 58 27 50 3f d7 cc 85 3e
       0.22507007 0.0783108 0.81310034 0.26132843
000060 15 bd c2 3e 6a 73 97 3e 24 5a 76 be b2 a3 22 be
       0.38034883 0.2958024 -0.24057823 -0.15882757
000070 da 09 d6 be 1b 6c 0b 3f 61 2d 83 3c 67 ff 93 3e
       -0.4180439 0.5446183 0.01601285 0.28905794

model.6.bias f4 [2]
000000 40 58 f5 bc d6 2a 4a be
       -0.029949307 -0.19742903
